1_KORD_Self_Regression/best_model.pth (torch, 182455 bytes, 7 tensors)

network.0.weight f4 [128, 267]
-0.01930409 -0.0015621363 -0.00027445416 -0.06425351 -0.0481558 -0.043934237 0.017924536 -0.05394928
-0.0804254 -0.050978262 -0.041680995 -0.05669267 -0.010098936 0.012249437 -0.04042527 0.011939421
0.017250547 0.026978247 -0.033573486 -0.03713432 -0.01861493 -0.07215239 -0.014815736 0.0038965754
-0.032036312 0.031619847 -0.028260421 0.005631785 -0.05015177 0.028542321 -0.053609755 -0.038742963
-0.023048326 -0.051289648 -0.019578915 -0.012322089 0.013762228 0.00068766566 0.012426664 -0.030779568
0.0018473926 0.03194441 0.009422977 -0.015210868 0.004797029 0.029881604 -0.050796468 0.030160569
0.04702139 -0.056117363 -0.038067084 0.035325248 -0.023663737 -0.04080027 -0.047504902 0.019565292
0.039614502 -0.021297965 0.00080339436 -0.067319654 0.027878994 -0.056636184 0.019654041 -0.07223518
0.023320097 0.039627995 -0.07138183 0.04321498 -0.044643976 0.000993255 -0.013134082 0.0371855
0.016418913 -0.056433033 -0.051979303 0.017256424 -0.0694653 -0.0400027 -0.005968859 -0.01780084
-0.007962359 0.028282136 -0.023753036 -0.028091185 0.022943297 -0.0069322432 -0.06512346 0.030456867
0.014782207 -0.064370394 0.029692158 -0.044418275 0.022187967 0.017572766 -0.018001826 0.017971594
-0.022171032 0.039767306 0.018350942 0.008834764 0.019724876 0.017533526 -0.026757246 -0.015055095
-0.0014576556 0.023338363 -0.059734054 -0.064524084 0.004796304 0.03968734 -0.01896563 -0.06885219
-0.00064508076 0.045121565 -0.076445356 -0.05881384 -0.026997963 0.009954304 -0.048875663 -0.062466413
0.02850568 -0.001151373 -0.050204176 -0.057364706 0.024311151 -0.072283685 0.025586996 0.03726514
-0.026963878 -0.01057797 -0.025795508 -0.00015807096 -0.0039513824 -0.075932726 0.01696481 0.026600638
-0.0020591917 -0.030702507 -0.012216488 -0.05766408 0.028134719 -0.03829958 -0.032671083 -0.0647394
-0.0012866155 -0.035287105 -0.0394473 0.020268507 -0.02123192 -0.047301706 -0.06330484 0.04707927
-0.002590582 -0.07010276 -0.043046895 0.045610927 0.036744606 -0.03736482 0.0019908089 -0.0249768
0.0051192497 0.022859443 -0.046792183 -0.060615238 -0.06510285 0.034052525 -0.033109166 0.044562645
-0.0361497 -0.023876376 0.013110644 -0.016358532 -0.062259138 0.0340862 -0.010083586 0.00043447636
0.034030024 -0.025493555 0.042990115 -0.0681257 -0.035968617 0.038056456 0.036853954 0.018955193
-0.028483978 -0.010816195 -0.05531542 -0.05706118 -0.07532142 -0.034272004 -0.040634632 0.029313385
0.03784623 -0.040370718 -0.028412985 -0.019118346 0.02262672 -0.06250392 0.03645714 -0.07143688
0.031818867 -0.072253905 0.03141172 -0.021628289 -0.007322421 0.019100685 -0.007248684 0.03206307
-0.04275231 -0.051195562 0.028508611 0.027750261 0.038956713 -0.060670983 -0.060497303 -0.03428239
0.024433188 0.01755333 -0.054489065 -0.028074665 0.047863353 -0.036552437 -0.011018763 0.012307305
0.016197175 0.0019074046 0.055199508 -0.06136818 -0.04487085 -0.06603177 0.023168974 0.037572887
-0.058818262 -0.05587685 0.041553393 -0.044466347 0.008399019 -0.02066238 -0.00066416746 0.014551879
-0.03352659 0.040090382 0.037207667 0.0051809694 -0.04019471 -0.040759247 0.025049256 0.018240534
-0.015262475 -0.030379478 -0.03494872 -0.04843292 -0.025866758 -0.041598115 -0.02845781 0.029523231
00000000: 9c23 9ebc 99c0 ccba 9de4 8fb9 5897 83bd
00000010: 043f 45bd 63f4 33bd 7ad6 923c ecf9 5cbd
00000020: 12b6 a4bd 95ce 50bd b1b9 2abd 9336 68bd
00000030: 0276 25bc ddb1 483c f894 25bd 909d 433c
00000040: 0551 8d3c 7c01 dd3c 5a84 09bd 281a 18bd
00000050: 567e 98bc a2c4 93bd b3bd 72bc b05d 7f3b
00000060: 8238 03bd d083 013d 6682 e7bc d68a b83b
00000070: f16b 4dbd 96d1 e93c e795 5bbd f1b0 1ebd
00000080: d8cf bcbc 1815 52bd f663 a0bc 96e2 49bc
00000090: f87a 613c 7644 343a 3599 4b3c 6f25 fcbc
000000a0: 3624 f23a 24d8 023d d562 1a3c 0137 79bc
000000b0: 6530 9d3b 44ca f43c f50f 50bd 4c13 f73c
000000c0: 8099 403d 52db 65bd 3bec 1bbd 35b1 103d
000000d0: 74da c1bc 2f1e 27bd 8094 42bd 6447 a03c
000000e0: d142 223d 1279 aebc e29a 523a e3de 89bd
000000f0: 7d62 e43c 58fb 67bd 8301 a13c 0af0 93bd
00000100: ca09 bf3c f750 223d a330 92bd 3102 313d
00000110: 9adc 36bd 1b30 823a 5530 57bc d34f 183d
00000120: f580 863c 5326 67bd 40e8 54bd 585d 8d3c
00000130: d343 8ebd dfd9 23bd 6b96 c3bb 11d3 91bc
00000140: 8e74 02bc f0af e73c ba95 c2bc 7c1f e6bc
00000150: 95f3 bb3c df27 e3bb 735f 85bd ae80 f93c
00000160: 1231 723c a0d4 83bd f83c f33c f0ef 35bd
00000170: 8ac3 b53c c3f4 8f3c 9178 93bc 2a39 933c
00000180: 06a0 b5bc 0be3 223d b754 963c b0bf 103c
00000190: 1096 a13c 78a2 8f3c 0332 dbbc a5a9 76bc
000001a0: ce0e bfba 1830 bf3c b2ab 74bd 3425 84bd
000001b0: 502a 9d3b 318f 223d cf5d 9bbc 6102 8dbd
000001c0: a31a 29ba 64d1 383d 628f 9cbd c8e6 70bd
000001d0: d52a ddbc 6117 233c d931 48bd c8dc 7fbd
000001e0: be84 e93c abe9 96ba e5a2 4dbd 41f7 6abd
000001f0: 2e28 c73c 7809 94bd d29b d13c 55a3 183d
00000200: 5ae3 dcbc 394f 2dbc 1a51 d3bc dabf 25b9
00000210: 997a 81bb 9e82 9bbd c9f9 8a3c 95e9 d93c
00000220: 81f3 06bb d383 fbbc aa27 48bc 2c31 6cbd
00000230: c87a e63c 05e0 1cbd 1dd2 05bd 1796 84bd
00000240: a7a3 a8ba 3689 10bd 7e93 21bd 240a a63c
00000250: 90ee adbc 6fbf 41bd f8a5 81bd 31d6 403d
00000260: c1c6 29bb 0992 8fbd f151 30bd 86d2 3a3d
00000270: 8381 163d da0b 19bd 3b78 023b 259c ccbc
00000280: 61bf a73b ba43 bb3c 29a9 3fbd af47 78bd
00000290: a554 85bd a97a 0b3d 7a9d 07bd 5287 363d
000002a0: b511 14bd 6498 c3bc 07ce 563c 5402 86bc
000002b0: 7003 7fbd f99d 0b3d a035 25bc 6eca e339
000002c0: 1163 0b3d dcd7 d0bc 6716 303d 7d85 8bbd
000002d0: d453 13bd 16e1 1b3d 2cf4 163d ec47 9b3c
000002e0: 3b57 e9bc 6936 31bc 6c92 62bd fcb8 69bd
000002f0: 1e42 9abd cd60 0cbd 8070 26bd a022 f03c
00000300: a604 1b3d c45b 25bd 59c2 e8bc 149e 9cbc
00000310: ac5b b93c 0e02 80bd 1554 153d 804d 92bd
00000320: 8054 023d dbf9 93bd 93a9 003d cf2d b1bc
00000330: ebf0 efbb 0a79 9c3c 5e86 edbb 9154 033d
00000340: 0c1d 2fbd 70b2 51bd e48a e93c 8454 e33c
00000350: 1391 1f3d 2382 78bd 05cc 77bd b16b 0cbd
00000360: 1c28 c83c 00cc 8f3c ed2f 5fbd d7fc e5bc
00000370: 5d0c 443d 02b8 15bd 0b88 34bc 94a4 493c
00000380: f0af 843c e101 fa3a e118 623d 335d 7bbd
00000390: 7fca 37bd aa3b 87bd dccc bd3c 07e6 193d
000003a0: 6beb 70bd 20df 64bd e433 2a3d 5822 36bd
000003b0: 0a9c 093c 2744 a9bc 861b 2eba 016b 6e3c
000003c0: 2d53 09bd d035 243d 1167 183d 1fc5 a93b
000003d0: 35a3 24bd 2bf3 26bd 1934 cd3c 2c6d 953c
000003e0: 760f 7abc 62de f8bc 6426 0fbd 9961 46bd
000003f0: 86e6 d3bc c962 2abd 5a20 e9bc b4da f13c

network.0.bias f4 [128]
-0.010262813 -0.0107392715 0.027969416 -0.05146935 0.017130569 -0.057757605 -0.038262337 -0.0015402333
0.01414611 -0.04402778 0.041049503 -0.050504893 -0.060494713 0.027423287 -0.036376882 -0.0030455468
-0.0326251 -0.0476733 -0.047265735 0.05110625 -0.05341554 -0.034436736 0.028285176 0.011744786
-0.03850248 0.02491478 -0.036425713 -0.027805801 -0.065601826 0.004731657 0.04302591 0.03628644
-0.057252787 -0.029058587 -0.0333128 0.047634613 0.033068024 0.012998812 -0.020581787 -0.05107166
0.00039946745 -0.03142312 -0.03245169 -0.023924777 -0.029015947 -0.026062036 0.0353356 -0.010938046
-0.058829706 0.03397392 0.015032123 -0.0155047225 -0.006232139 -0.022616522 -0.033613548 0.007084588
0.0035827782 0.0040465705 0.035370983 -0.024312863 -0.03495806 0.04148856 0.010015954 0.050191186
-0.02399732 0.037171748 0.02015222 -0.014892235 -0.030987859 0.0032840762 -0.03390176 0.02983362
0.032466635 -0.028258622 0.007585709 -0.02491594 -0.042083435 -0.015364914 -0.012722565 -0.06210949
0.04362952 0.02553156 0.047297105 0.029804334 0.018701661 -0.022501346 -0.024015686 -0.00041712998
-0.06475961 -0.059687212 -0.025594253 0.000112702655 0.0038461394 -0.06757243 -0.0369222 0.0077216676
-0.038943328 0.014609308 0.05133285 0.020374186 -0.047839403 0.040240098 0.040868174 -0.04562881
-0.062322486 0.008417871 -0.015269232 0.04006687 -0.020496534 -0.067960955 -0.044114318 -0.063459605
-0.0069336644 0.019541569 0.0024865177 -0.025657775 -0.030254543 0.02346619 -0.0019221732 0.006451667
0.04188602 0.01964209 0.03744364 -0.040341135 -0.00559204 -0.035008177 -0.044943113 -0.027960952
00000000: 5c25 28bc c5f3 2fbc 1e20 e53c 86d1 52bd
00000010: 6855 8c3c 3d93 6cbd f8b8 1cbd a7e1 c9ba
00000020: 16c5 673c 7956 34bd 8623 283d 38de 4ebd
00000030: 4ec9 77bd cda6 e03c edff 14bd cc97 47bb
00000040: e6a1 05bd 1445 43bd b799 41bd ca54 513d
00000050: 41ca 5abd 890d 0dbd 50b6 e73c 346d 403c
00000060: c7b4 1dbd 151a cc3c 2133 15bd fec8 e3bc
00000070: 405a 86bd 040c 9b3b f03b 303d 17a1 143d
00000080: e681 6abd 460c eebc 0173 08bd 831c 433d
00000090: 5672 073d f8f8 543c 239b a8bc 8430 51bd
000000a0: 9d6f d139 88b5 00bd 10ec 04bd e5fd c3bc
000000b0: dab2 edbc 0d80 d5bc 10bc 103d 7d35 33bc
000000c0: 6bf7 70bd 3d28 0b3d 4b49 763c 8507 7ebc
000000d0: f936 ccbb 4946 b9bc 5cae 09bd d525 e83b
000000e0: 0bcd 6a3b 1899 843b 2ae1 103d c52b c7bc
000000f0: 2f30 0fbd e9ef 293d f519 243c 4695 4d3d
00000100: 0796 c4bc 6741 183d 4516 a53c 90fe 73bc
00000110: 40da fdbc a839 573b 92dc 0abd a365 f43c
00000120: bcfb 043d a07e e7bc 8a91 f83b 831c ccbc
00000130: ae5f 2cbd 1fbd 7bbc 4e72 50bc 8566 7ebd
00000140: deb4 323d 9027 d13c 9cba 413d 3828 f43c
00000150: 3a34 993c be54 b8bc 8bbc c4bc 3db2 dab9
00000160: b0a0 84bd 947a 74bd 0aab d1bc c75a ec38
00000170: 830f 7c3b 6a63 8abd bc3b 17bd 0b06 fd3b
00000180: 0a83 1fbd e15b 6f3c 6542 523d c4e7 a63c
00000190: 40f3 43bd cdd2 243d 6365 273d 46e5 3abd
000001a0: dd45 7fbd 1ceb 093c cd2b 7abc 291d 243d
000001b0: 59e8 a7bc 1d2f 8bbd 37b1 34bd 1cf7 81bd
000001c0: cb33 e3bb a415 a03c d8f4 223b 4130 d2bc
000001d0: 60d8 f7bc 2b3c c03c 6ef1 fbba 8168 d33b
000001e0: ad90 2b3d 73e8 a03c 815e 193d bf3c 25bd
000001f0: 6e3d b7bb bc64 0fbd 4516 38bd 5e0e e5bc

network.3.weight f4 [64, 128]
-0.05244274 -0.027883809 -0.06883293 -0.007858808 0.04714137 -0.035540525 0.017168524 0.081205696
0.060259536 -0.023425655 0.071033575 -0.04205269 0.014797239 0.050194528 -0.06691556 -0.038475994
0.07917155 0.027064608 -0.08094697 -0.06783651 -0.05501258 -0.10471288 0.057407975 -0.012670602
0.051617373 -0.06773211 -0.033373613 0.015086346 0.07011132 0.004850564 -0.0191411 -0.06999997
-0.0038875658 0.0017461452 -0.0070548453 -5.5968894e-06 -0.05735772 -0.040125392 -0.01247074 0.012803698
0.038994737 0.016855361 -0.05651197 0.022854835 0.014758634 -0.038067177 0.07945256 0.034567147
-0.011840273 -0.022998262 -0.03352872 -0.014845484 0.03773883 -0.00088091264 0.015759733 -0.025897814
0.08567708 0.0129275415 0.075640075 -0.10873147 -0.0022090648 -0.05213721 -0.09744076 0.074320264
0.09045578 -0.04907576 -0.030382609 -0.01230172 0.010001856 -0.020510806 0.032264594 -0.024806933
-0.09209781 0.06533533 -0.033225574 0.0661525 -0.0030900682 0.06191448 -0.06599584 -0.029109882
0.09963269 -0.036452703 -0.08552845 -0.051823057 -0.049198855 0.02645651 -0.09310917 0.009558229
0.0786209 -0.028696712 0.03271189 -0.024617566 -0.111286856 -0.09131804 0.12529345 -0.02564611
0.003623334 -0.10017554 -0.0015226018 0.0680583 -0.056252208 0.0010108656 -0.033917464 -0.0073523796
0.0038387754 0.01704222 -0.08453402 -0.020497235 0.03466525 0.028295107 -0.07219478 -0.008480436
-0.088597216 0.059361525 -0.043466788 -0.0072370856 0.040321846 0.040868077 -0.007034546 -0.07189979
-0.021075908 0.068693645 0.10763877 -0.084920526 -0.0019427605 -0.022539202 0.057094797 0.0068746516
0.065444484 -0.0011914351 -0.08154684 -0.04764104 -0.08436295 -0.072319046 0.055990357 0.037496816
0.015558085 -0.001953529 -0.07431295 -0.0012032476 -0.022318946 0.030922312 -0.03928443 -0.0690373
-0.0836709 -0.05487703 0.041575857 -0.06847789 0.010058976 -0.029840792 -0.06408762 -0.055086322
0.040324662 -0.03537122 0.021707516 0.0013876152 0.003430372 0.021287406 0.08873195 0.043356728
-0.02908793 0.030643912 0.022701798 0.055316158 0.06842122 -0.017716194 -0.061645232 -0.0030717014
-0.015884217 0.06508789 0.044486426 0.028568937 -0.10975004 0.00043840834 0.05607415 -0.039461903
0.059479505 -0.0008534959 6.3332875e-05 0.032576207 0.07578551 -0.07870112 0.022968268 -0.00273301
-0.04364968 -0.04286828 0.07399978 0.00661917 -0.049098972 -0.07878017 -0.06029644 -0.088547416
0.068380125 -0.04673072 0.014758805 -0.0033085595 -0.042370263 0.014590003 0.031975836 0.06061789
0.029944448 0.08150492 -0.0018423354 -0.08283851 -0.0896439 0.05950542 0.04902083 -0.04351116
-0.0233102 -0.07513537 0.06464314 -0.06366905 0.08145075 0.061269056 -0.012517663 0.030338882
0.038283348 -0.043937314 -0.015436965 0.01243531 -0.027047565 -0.06655871 -0.063550614 0.06352874
-0.0023979377 0.02804846 -0.017941134 -0.005407119 -0.02292886 -0.056789737 -0.036403343 0.072414875
-0.037954636 -0.029555576 -0.019038126 0.006746981 0.07119845 -0.067296825 -0.07354048 -0.025216255
0.010163792 0.042871285 -0.08272298 -0.040016927 0.008254265 0.07777994 -0.08258759 0.012075702
-0.02404483 0.019403152 0.07790255 -0.022657065 0.004182226 0.0006540462 0.050279476 0.00065882865
00000000: 33ce 56bd 966c e4bc 47f8 8cbd 3bc2 00bc
00000010: 4f17 413d f192 11bd 01a5 8c3c 2c4f a63d
00000020: b4d2 763d 29e7 bfbc 0d7a 913d 713f 2cbd
00000030: 1e70 723c c798 4d3d 060b 89bd 0199 1dbd
00000040: b224 a23d 99b6 dd3c 86c7 a5bd deed 8abd
00000050: df54 61bd b573 d6bd a024 6b3d 5b98 4fbc
00000060: bd6c 533d 22b7 8abd c5b2 08bd b92c 773c
00000070: 8696 8f3d 7bf1 9e3b cccd 9cbc 255c 8fbd
00000080: 88c6 7ebb e9de e43a 552c e7bb eacc bbb6
00000090: eeef 6abd 865a 24bd 1352 4cbc 9ac6 513c
000000a0: f2b8 1f3d 4114 8a3c 1879 67bd 103a bb3c
000000b0: 33ce 713c 54ec 1bbd 06b8 a23d 4896 0d3d
000000c0: b4fd 41bc da66 bcbc 6955 09bd 793a 73bc
000000d0: 0894 1a3d 0ced 66ba 8e1a 813c a727 d4bc
000000e0: 7777 af3d 0ace 533c 2fe9 9a3d 9bae debd
000000f0: f5c5 10bb d48d 55bd 058f c7bd 3935 983d
00000100: e140 b93d aa03 49bd f3e4 f8bc 278d 49bc
00000110: d3de 233c 4706 a8bc e127 043d e937 cbbc
00000120: c79d bcbd 88ce 853d 8a17 08bd f67a 873d
00000130: be82 4abb 0a9a 7d3d d428 87bd d977 eebc
00000140: 390c cc3d 6e4f 15bd 8a29 afbd 6a44 54bd
00000150: bd84 49bd 53bb d83c 05b0 bebd 1e9a 1c3c
00000160: ff03 a13d 5e15 ebbc e7fc 053d c7aa c9bc
00000170: 5dea e3bd f404 bbbd ed4c 003e ca17 d2bc
00000180: 7575 6d3b d528 cdbd 0a92 c7ba 2662 8b3d
00000190: b768 66bd 057f 843a 0aed 0abd 3bec f0bb
000001a0: f793 7b3b 209c 8b3c 2c20 adbd d1e9 a7bc
000001b0: 26fd 0d3d 24cb e73c dbda 93bd 87f1 0abc
000001c0: 7572 b5bd 1225 733d 3b0a 32bd 1325 edbb
000001d0: 8528 253d 4965 273d 0d82 e6bb 3240 93bd
000001e0: 62a7 acbc 41af 8c3d b771 dc3d d0ea adbd
000001f0: 3aa4 feba 22a4 b8bc 3cdc 693d c244 e13b
00000200: c207 863d ee29 9cba 0802 a7bd 4023 43bd
00000210: 7bc6 acbd 021c 94bd 2556 653d 4396 193d
00000220: 57e7 7e3c c706 00bb 6331 98bd 4ab6 9dba
00000230: 39d6 b6bc ca50 fd3c b6e8 20bd 6e63 8dbd
00000240: a65b abbd bdc6 60bd 724b 2a3d 233e 8cbd
00000250: 67ce 243c ad74 f4bc 5f40 83bd 32a2 61bd
00000260: 792b 253d 6ae1 10bd f6d3 b13c a4e0 b53a
00000270: 18d0 603b ed62 ae3c 19b9 b53d d396 313d
00000280: d049 eebc f108 fb3c 1ff9 b93c 3293 623d
00000290: 6d20 8c3d 8d21 91bc b67f 7cbd 994e 49bb
000002a0: 9e1f 82bc cd4c 853d 6637 363d 6709 ea3c
000002b0: a1c4 e0bd 2cda e539 02ae 653d cea2 21bd
000002c0: c8a0 733d 24bd 5fba 94d1 8438 a16e 053d
000002d0: 6f35 9b3d 0e2e a1bd f327 bc3c 4d1c 33bb
000002e0: 02ca 32bd a696 2fbd 328d 973d 9fe5 d83b
000002f0: 011c 49bd 7f57 a1bd 66f9 76bd 5958 b5bd
00000300: e10a 8c3d b668 3fbd eace 713c 6bd4 58bb
00000310: 718c 2dbd e80a 6f3c 18f9 023d 774a 783d
00000320: 0f4e f53c 0dec a63d 857a f1ba 3da7 a9bd
00000330: 3997 b7bd f5bb 733d 11ca 483d c238 32bd
00000340: 08f5 bebc 93e0 99bd 9f63 843d eb64 82bd
00000350: a7cf a63d 43f5 7a3d e216 4dbc 3f89 f83c
00000360: 00cf 1c3d 9df7 33bd 53eb 7cbc 78bd 4b3c
00000370: db92 ddbc ef4f 88bd d326 82bd 5b1b 823d
00000380: b826 1dbb e2c5 e53c 49f9 92bc 342e b1bb
00000390: 4ed5 bbbc 5b9c 68bd ac1b 15bd 404e 943d
000003a0: 5276 1bbd 891e f2bc d8f5 9bbc c715 dd3b
000003b0: 7ed0 913d ebd2 89bd 649c 96bd 5292 cebc
000003c0: 0986 263c cd99 2f3d aa6a a9bd cae8 23bd
000003d0: e63c 073c 174b 9f3d af23 a9bd 2ad9 453c
000003e0: aaf9 c4bc 5cf3 9e3c 5f8b 9f3d 4f9b b9bc
000003f0: 0e0b 893b 4c74 2b3a daf1 4d3d 3eb5 2c3a

network.3.bias f4 [64]
-0.17013665 0.024845432 0.09546877 -0.15105607 0.03373761 -0.07087286 -0.08556049 -0.044622667
0.08924246 -0.060441907 0.07417637 -0.104267545 0.08932199 -0.00044771662 -0.040936872 0.018694986
0.024659393 -0.028679242 0.044698644 -0.06678255 0.009147541 -0.042833094 0.038641937 -0.082523264
-0.13534954 -0.04826621 -0.024711585 0.13581692 -0.12758136 -0.07309156 0.009392007 0.014052803
-0.03237162 0.002098476 -0.081985794 -0.021633182 0.07831625 -0.0709748 0.053141452 -0.1129013
0.03504742 0.04141355 0.17279835 -0.026066719 0.049272668 0.0017552306 -0.05254916 0.03737889
0.06015976 -0.013555867 0.12798625 -0.01868426 -0.13038415 -0.017130736 -0.09525896 0.078147404
0.05937799 0.06353847 0.045692824 0.036270868 0.007154913 -0.09530151 -0.022713915 0.036697965
00000000: 4d38 2ebe a688 cb3c 2185 c33d 71ae 1abe
00000010: 7330 0a3d ca25 91bd 573a afbd 42c6 36bd
00000020: c0c4 b63d ef91 77bd c8e9 973d 398a d5bd
00000030: 73ee b63d 82bb eab9 6cad 27bd 3a26 993c
00000040: 7f02 ca3c bbf0 eabc ed15 373d 4ac5 88bd
00000050: 91df 153c c171 2fbd 0247 1e3d f501 a9bd
00000060: 1299 0abe cab2 45bd f36f cabc 9713 0b3e
00000070: b0a4 02be 07b1 95bd efe0 193c ba3d 663c
00000080: 1b98 04bd 9686 093b 2be8 a7bd 1238 b1bc
00000090: 4564 a03d 3c5b 91bd daaa 593d cc38 e7bd
000000a0: e28d 0f3d 41a1 293d 0df2 303e df89 d5bc
000000b0: 23d2 493d c40f e63a ca3d 57bd 9b1a 193d
000000c0: 156a 763d 6d19 5ebc d40e 033e bc0f 99bc
000000d0: 6c83 05be c255 8cbc 2117 c3bd bf0b a03d
000000e0: 5636 733d 7520 823d 6628 3b3d c390 143d
000000f0: c373 ea3b 702d c3bd 8812 babc 9b50 163d

network.6.weight f4 [32, 64]
-0.06159279 -0.06463158 -0.012430047 -0.08779618 -0.08105182 -0.059933502 -0.061157666 -0.1272209
0.017415378 0.0823323 -0.0809396 -0.00040019228 0.023518926 -0.1115836 -0.1083356 0.059198163
-0.09511473 -0.08222398 -0.111649744 -0.084501185 -0.054892123 -0.0058528767 -0.08642141 0.047264826
0.023866342 -0.014381271 0.02534874 0.013416904 0.06874285 0.08735896 0.05464349 0.0032828457
0.072234735 -0.060655627 -0.05002349 0.07085631 -0.11326061 0.061783914 0.07918104 0.08312693
-0.10142281 0.023568852 -0.030079985 -0.09660658 -0.030864622 -0.008310107 0.05996221 0.09931226
-0.024974912 -0.06771394 -0.07837416 -0.08911286 -0.10196044 0.0832777 -0.056677744 0.08211888
0.1065221 -0.09338105 0.054885574 -0.038998846 0.024490103 0.004722904 -0.052814662 0.013593548
0.020035243 -0.0763381 -0.04820947 -0.09822205 0.046693992 0.0979069 0.034231164 -0.19543089
-0.081211716 -0.07172142 0.06399801 -0.0818348 -0.023086773 0.08120816 -0.012767808 -0.09198576
-0.08108126 -0.013205692 -0.016634813 0.09395236 -0.082290545 0.065398164 -0.027339904 -0.055592634
-0.05954215 0.057999358 0.03157854 0.019829866 0.0033001075 -0.080088735 0.0013724895 -0.117837854
-0.06426492 -0.078213334 0.042840518 0.082146615 -0.06584103 -0.061053 -0.038506098 -0.051473726
0.05998875 0.09428805 -0.05137462 -0.056462135 -0.0105980085 -0.10285646 0.10280313 0.02727425
0.070797 -0.121051595 0.11880292 -0.038840413 -0.064037785 -0.014430364 -0.027932787 -0.033810247
0.097443655 -0.060930356 0.10034175 0.001154293 0.045603372 -0.031536818 0.107750826 -0.119817354
0.019034462 -0.08882932 0.09965505 -0.013373303 0.005758815 0.109592475 -0.038540117 0.025009088
0.06802306 0.066608384 0.004751136 -0.10763102 -0.037503097 -0.0255825 -0.052247133 -0.10293667
-0.06630598 0.07371281 -0.06043493 0.07874664 0.08111826 0.029029535 0.059448175 0.10079335
0.0069442606 0.11269741 -0.097987644 0.041647915 -0.03507347 0.034379892 0.05667113 0.050028533
0.07085247 -0.038456317 0.14116229 0.0596489 -0.003857779 -0.08707145 0.076804675 0.05007667
-0.09870821 -0.08151461 0.10929484 0.118361644 -0.007044233 0.015535897 0.005310289 0.010801719
-0.08629745 0.04440672 0.09249018 -0.08111508 -0.088043466 0.08148259 -0.011323912 0.030894756
0.11563539 0.046926152 0.023940856 0.06311134 0.04586491 0.08834331 -0.075380035 -0.060096122
0.03366996 0.05673138 -0.11108554 0.014510649 -0.054321814 0.029447434 0.09448139 -0.12408236
0.07122224 0.05810418 -0.06275407 0.002381111 -0.113220386 0.11941644 -0.100565575 0.07284842
-0.030265532 -0.051404696 -0.1177615 0.0032401162 -0.11832576 -0.06464625 -0.094707176 -0.08111539
0.0748908 -0.009685705 -0.09272492 -0.085116155 0.010369203 -0.011386696 -0.060277846 0.08265198
0.0058521465 0.031332623 -0.08716539 -0.08002782 -0.0044606123 -0.0055139707 0.0050545214 0.0018952345
0.014591785 -0.023697617 -0.026376285 -0.12818614 -0.091106206 0.02893949 0.03863739 -0.017281476
-0.11030611 -0.011858258 -0.061458785 0.088205725 0.019544223 0.0640039 0.08603607 0.021085944
-0.048419803 -0.09833875 -0.026514437 -0.099592306 0.03416032 -0.0020275828 0.083417945 -0.0198882
00000000: b948 7cbd 905d 84bd 65a7 4bbc 7cce b3bd
00000010: 7ffe a5bd d57c 75bd 7680 7abd 3246 02be
00000020: b2aa 8e3c d69d a83d a9c3 a5bd e6d0 d1b9
00000030: c3aa c03c f185 e4bd 0edf ddbd c679 723d
00000040: 83cb c2bd 0c65 a8bd 9fa8 e4bd f50e adbd
00000050: 90d6 60bd 7dc9 bfbb b5fd b0bd c398 413d
00000060: 5983 c33c 6c9f 6bbc 29a8 cf3c 93d2 5b3c
00000070: 0dc9 8c3d 41e9 b23d dad1 5f3d 0325 573b
00000080: ceef 933d 0972 78bd 6ee5 4cbd 1d1d 913d
00000090: 2ef5 e7bd 2111 7d3d ab29 a23d 743e aa3d
000000a0: c3b6 cfbd 7713 c13c 4d6a f6bc acd9 c5bd
000000b0: ced7 fcbc 1d27 08bc ef9a 753d 3a64 cb3d
000000c0: 3098 ccbc 9bad 8abd a282 a0bd ce80 b6bd
000000d0: a3d0 d0bd 808d aa3d ec26 68bd f12d a83d
000000e0: 4228 da3d 903e bfbd b2cf 603d 41bd 1fbd
000000f0: 789f c83c 97c2 9a3b 3054 58bd 79b7 5e3c
00000100: f320 a43c 2657 9cbd 4b77 45bd a428 c9bd
00000110: 3342 3f3d 6a83 c83d fa35 0c3d 091f 48be
00000120: 5452 a6bd aee2 92bd 6311 833d 0199 a7bd
00000130: 7920 bdbc 7750 a63d 1130 51bc 0863 bcbd
00000140: ef0d a6bd b05c 58bc bb45 88bc 186a c03d
00000150: f287 a8bd 79ef 853d eff7 dfbc 1ab5 63bd
00000160: 78e2 73bd bc90 6d3d 8058 013d 3e72 a23c
00000170: 9e46 583b 9005 a4bd 1be5 b33a f954 f1bd
00000180: 549d 83bd 502e a0bd 8a79 2f3d 7c3c a83d
00000190: a9d7 86bd b612 7abd 92b8 1dbd 1dd6 52bd
000001a0: c3b6 753d 181a c13d 326e 52bd d744 67bd
000001b0: 45a3 2dbc 68a6 d2bd 738a d23d 3f6e df3c
000001c0: 04fe 903d e6e9 f7bd f24e f33d 2017 1fbd
000001d0: 3e26 83bd 556d 6cbc 4dd3 e4bc 9d7c 0abd
000001e0: 8a90 c73d 1c92 79bd fa7f cd3d a54b 973a
000001f0: 9aca 3a3d c02c 01bd 77ac dc3d cd62 f5bd
00000200: 29ee 9b3c 26ec b5bd f217 cc3d b31b 5bbc
00000210: 71b4 bc3b 0572 e03d 3edc 1dbd dcdf cc3c
00000220: ad4f 8b3d fa69 883d 6baf 9b3b a76d dcbd
00000230: d99c 19bd 6492 d1bc 1701 56bd 76d0 d2bd
00000240: 6ecb 87bd bef6 963d 9e8a 77bd eb45 a13d
00000250: 5521 a63d 59cf ed3c ee7f 733d be6c ce3d
00000260: ae8c e33b e6cd e63d bfad c8bd 0197 2a3d
00000270: 33a9 0fbd eed1 0c3d fd1f 683d b8ea 4c3d
00000280: 1a1b 913d 5f84 1dbd d98c 103e 6852 743d
00000290: cbd2 7cbb 8452 b2bd c54b 9d3d 321d 4d3d
000002a0: 8827 cabd 22f1 a6bd f9d5 df3d 9767 f23d
000002b0: 4fd3 e6bb 468a 7e3c ef01 ae3b b1f9 303c
000002c0: b8bc b0bd d2e3 353d 7e6b bd3d aa1f a6bd
000002d0: 2250 b4bd 58e0 a63d ee87 39bc 0017 fd3c
000002e0: 3fd2 ec3d a335 403d 9d1f c43c 8540 813d
000002f0: d8dc 3b3d 56ed b43d d960 9abd 5a27 76bd
00000300: 83e9 093d 2a5f 683d d180 e3bd 13be 6d3c
00000310: 8d80 5ebd bf3b f13c 767f c13d e41e febd
00000320: f7dc 913d a6fe 6d3d 3585 80bd 6a0c 1c3b
00000330: 17e0 e7bd 9b90 f43d 53f5 cdbd 8d31 953d
00000340: 6cef f7bc bb8d 52bd f12c f1bd 2158 543b
00000350: c754 f2bd 4165 84bd d6f5 c1bd d31f a6bd
00000360: 5960 993d cbb0 1ebc 90e6 bdbd 6151 aebd
00000370: 97e3 293c 448f 3abc e7e5 76bd 7145 a93d
00000380: 5dc3 bf3b a356 003d c583 b2bd a0e5 a3bd
00000390: 542a 92bb 8aae b4bb 66a0 a53b 8469 f83a
000003a0: 6212 6f3c 8121 c2bc 1413 d8bc 3a43 03be
000003b0: e495 babd 8212 ed3c 3d42 1e3d e291 8dbc
000003c0: 2be8 e1bd 2449 42bc 35bc 7bbd 34a5 b43d
000003d0: 351b a03c 7a14 833d ae33 b03d 6ebc ac3c
000003e0: d853 46bd d465 c9bd ce34 d9bc 0df7 cbbd
000003f0: b1eb 0b3d 32e1 04bb 07d7 aa3d 94ec a2bc

network.6.bias f4 [32]
0.027751187 -0.08162132 0.20196591 -0.16458502 0.036832035 0.075213104 -0.0820186 -0.105224594
-0.14879504 0.034000356 0.03147925 -0.2933796 -0.04187545 0.04378203 -0.13686225 -0.051614154
0.0121080475 0.04289854 0.23562467 -0.057517882 -0.067949675 0.0012773804 0.205159 0.027509017
0.03223034 0.24812712 -0.013786727 -0.038056694 0.13269255 0.03961972 0.008917386 0.08383634
00000000: 7556 e33c 1429 a7bd 27d0 4e3e fa88 28be
00000010: 30dd 163d 5409 9a3d 5ef9 a7bd fe7f d7bd
00000020: ba5d 18be f543 0b3d 63f0 003d da35 96be
00000030: 9885 2bbd c954 333d 9e25 0cbe 5d69 53bd
00000040: d560 463c 61b6 2f3d 9847 713e df97 6bbd
00000050: 3329 8bbd c66d a73a 3315 523e 975a e13c
00000060: f603 043d 0915 7e3e b9e1 61bc 56e1 1bbd
00000070: 8ee0 073e 4a48 223d 3a1a 123c 63b2 ab3d

network.8.weight f4 [1, 32]
0.11002732 -0.05393448 0.08462071 -0.096877374 0.038440034 -0.1377648 -0.050244883 0.10529077
-0.0705304 0.12173188 0.056882888 -0.08844368 -0.02743765 0.06295849 -0.039538573 -0.00040613682
0.039299697 0.085726835 0.029186007 -0.00088657025 -0.02365919 -0.07482832 0.07219115 0.058382265
-0.08270534 0.07248297 0.06350752 -0.06001132 0.026506536 -0.023413947 0.044029046 0.052380852
00000000: 0156 e13d 67ea 5cbd 9f4d ad3d a567 c6bd
00000010: 4c73 1d3d 3712 0dbe 94cd 4dbd b0a2 d73d
00000020: 3e72 90bd 904e f93d 08fe 683d f621 b5bd
00000030: ecc4 e0bc 61f0 803d 33f3 21bd c3ee d4b9
00000040: b8f8 203d 8d91 af3d 7e17 ef3c b968 68ba
00000050: ebd0 c1bc 973f 99bd f4d8 933d 3e22 6f3d
00000060: 6b61 a9bd f471 943d 3b10 823d 6ece 75bd
00000070: 3c24 d93c 9bce bfbc cd57 343d 4e8d 563d
