1_KORD_Self_Regression/best_model.pth (torch, 180919 bytes, 7 tensors)

network.0.weight f4 [128, 264]
0	0xbd814fde	-0.063140616
1	0x3c8cd40a	0.017190952
2	0xbcb04b66	-0.021520328
3	0xbd7e0701	-0.0620184
4	0xbd9697cc	-0.07353172
5	0x3ca62350	0.02028051
6	0xbca1eb25	-0.019765446
7	0x3d3ad9c5	0.045617837
8	0x3cf7ec21	0.030263962
9	0xbce54a81	-0.027989628
10	0x3b5ad7b3	0.0033392727
11	0x3d084318	0.03326711
12	0x3c9ee086	0.01939417
13	0xbd1f44ee	-0.038884096
14	0xbd62009c	-0.055176362
15	0x3bf9e67b	0.0076263524
16	0xbd06fdf9	-0.03295705
17	0xbd41bf24	-0.047301427
18	0x3c25282d	0.010080379
19	0xbd22f00a	-0.0397797
20	0x3d1d7236	0.038439
21	0xbaeef156	-0.0018229883
22	0xbd1b06a1	-0.03784812
23	0xbd811576	-0.063029215
24	0x3c015640	0.007894099
25	0xbd767dd5	-0.060178597
26	0x3b6f7c2d	0.003654252
27	0xbd00dc71	-0.03146023
28	0xbc340d8b	-0.010989557
29	0xbd4d6dd6	-0.050153576
30	0x3c5db88c	0.013532769
31	0xbce54ddc	-0.027991228
32	0x3d382244	0.044954553
33	0xbd541c20	-0.051784635
34	0x3be54117	0.0069962847
35	0x3cfc8508	0.030825153
36	0xbd3580ab	-0.04431216
37	0xbd569715	-0.052390177
38	0xbd7a8b5d	-0.061168063
39	0x3cf2dd87	0.029646648
40	0x3c69f8d2	0.014280515
41	0xbc5bc6f9	-0.013414138
42	0x3ba88280	0.00514251
43	0x3c858d46	0.016302716
44	0xbbd23a20	-0.0064156204
45	0xbd749e3f	-0.059721228
46	0x3c799b61	0.015234799
47	0xbd4750c1	-0.048660997
48	0xbd45a066	-0.04824867
49	0xbc6e3f80	-0.014541507
50	0x3d477ccd	0.048703004
51	0xbd3d9b18	-0.046290487
52	0xbd71278c	-0.058875605
53	0xbd6413b4	-0.055682853
54	0x387b2224	5.987486e-05
55	0x3ca5c3ec	0.020235024
56	0x3cdcdfbd	0.026962155
57	0x3d4100af	0.047119793
58	0xbca14e53	-0.019690668
59	0x3d0f59b1	0.034997646
60	0x3c8ae41b	0.016954472
61	0xbd0aa916	-0.03385266
62	0xbca1da75	-0.019757489
63	0xbcd56df2	-0.026053403
64	0x3d5a9d36	0.053372584
65	0x3d00e605	0.031469364
66	0xbd744035	-0.059631545
67	0xbd62d207	-0.05537608
68	0xbd27aa37	-0.040933814
69	0xbbf7c7ce	-0.0075616604
70	0x3cdfc614	0.02731613
71	0xbd2b6069	-0.04183999
72	0xbc3a60b6	-0.011375597
73	0x3cff1046	0.03113569
74	0xbcc58daf	-0.024115412
75	0xbc38a449	-0.011269637
76	0x3ceafa15	0.028683702
77	0xbd68404b	-0.05670194
78	0xbc472882	-0.012155654
79	0xbb531e52	-0.0032214117
80	0x3cdb744b	0.026788851
81	0x3d8d1b1a	0.06889935
82	0x3cd5db3c	0.026105516
83	0xbd4eb46c	-0.050465032
84	0xbc6c3490	-0.014416829
85	0xbcbde8a4	-0.02318222
86	0xbd2d708d	-0.042343665
87	0xbd2c3821	-0.042045716
88	0xbd13d34b	-0.036090177
89	0x3cb25fef	0.02177426
90	0xbd61968f	-0.055075224
91	0xbd80ce70	-0.06289375
92	0xbca9099e	-0.020634469
93	0x3c85ce36	0.01633368
94	0x3c8da8d4	0.017292418
95	0x3b36aeb8	0.0027875137
96	0xbd76992b	-0.060204666
97	0x3c2f64e3	0.010705206
98	0xbc085d3d	-0.008323011
99	0xbd04da5a	-0.0324348
100	0x3c99906a	0.01874562
101	0x3c2ba9b6	0.010477474
102	0xbc56d743	-0.013112846
103	0x3d005c8c	0.03133826
104	0xbd623a91	-0.055231635
105	0x3d3be7bd	0.0458753
106	0x3c730b64	0.014834259
107	0x3bb9f332	0.005674743
108	0x3d28fd85	0.0412574
109	0xbd77864f	-0.06043082
110	0xbcc50c6b	-0.024053773
111	0xbbb30629	-0.005463381
112	0xbd4b77b4	-0.049674705
113	0xbcd58e3f	-0.026068805
114	0xbd41115d	-0.0471357
115	0xbc69798f	-0.014250173
116	0xbd61ee28	-0.055158764
117	0x3cc1fdc2	0.023680571
118	0xbd8c54ca	-0.0685211
119	0x3c11cc57	0.008898816
120	0xbd6cd807	-0.057823207
121	0xbd739cf3	-0.05947585
122	0x3cba1ecb	0.022719761
123	0xbc5fbd9f	-0.013656049
124	0x3cf623ca	0.030046362
125	0x3a604bbf	0.0008556209
126	0xba9abebe	-0.0011806113
127	0xbd9ab361	-0.07553745
128	0x3d278f91	0.0409084
129	0xbc8f5b45	-0.017499575
130	0x3cb31d53	0.021864569
131	0xbd43d965	-0.047814745
132	0x3d106e93	0.0352617
133	0x3c4c0011	0.012451188
134	0x3d2b117a	0.041764714
135	0xbb9e2c7e	-0.004827081
136	0xbceddd25	-0.029036114
137	0xbc8d7a0a	-0.017270107
138	0xbd850a9b	-0.064961635
139	0x3d0c3358	0.034228653
140	0xbd8cdfb4	-0.068786055
141	0xbaf709c1	-0.0018847511
142	0x3cd685f1	0.026186915
143	0x3d42123a	0.047380663
144	0xbd12eabe	-0.0358684
145	0xbcf719ad	-0.03016361
146	0x3b9f2782	0.0048570046
147	0xbb07a7e5	-0.0020699438
148	0x3c21b7dc	0.009870496
149	0xbc50e6a8	-0.012750305
150	0x38ed819e	0.00011325184
151	0x3c045541	0.008076967
152	0xbb5edfae	-0.0034007835
153	0x3c273b21	0.0102069685
154	0x3d21bd26	0.039487027
155	0x3d35f54c	0.044423386
156	0x3ccb53c4	0.024820216
157	0xbce229cc	-0.02760782
158	0x3d72ab61	0.05924547
159	0xbc566ad6	-0.013086995
160	0x3d1338c1	0.035942797
161	0xbbb4d650	-0.005518712
162	0x3b9ff0c2	0.0048809955
163	0x3d6fd9e1	0.058557395
164	0xbd47272c	-0.04862134
165	0x3d17700a	0.036972083
166	0xbd395605	-0.04524805
167	0x3d3e9bdc	0.046535358
168	0x3d32d933	0.04366417
169	0xbd33dd1f	-0.04391205
170	0x3cb43201	0.0219965
171	0xbd8edfa1	-0.069762476
172	0x3c2fd5b5	0.010732104
173	0xbcd01e86	-0.02540518
174	0xbd34c37d	-0.044131745
175	0x3d0b05b1	0.033940975
176	0x3c75bdfa	0.014998907
177	0xbd8fcdc3	-0.07021668
178	0xbd42e565	-0.04758205
179	0x3c981c9a	0.018568326
180	0x3cb29143	0.021797782
181	0x3bb1b22e	0.005422852
182	0xbd213217	-0.03935441
183	0xbd0d9f60	-0.03457582
184	0x3bb465c2	0.0055052945
185	0x3b628bb2	0.0034568128
186	0x3b8e924a	0.004350935
187	0xbcde0a1d	-0.027104432
188	0xbd52aabf	-0.051432367
189	0xbd2e6497	-0.0425764
190	0xbd6024bc	-0.054722533
191	0xbd06ec7f	-0.032940384
192	0xbacf23e8	-0.0015803548
193	0x3c80f57d	0.015742058
194	0xbcb5cbd8	-0.022191927
195	0x3c4cb09f	0.012493282
196	0xbcf10c84	-0.029424913
197	0xbd60cbc3	-0.054881822
198	0xb730e937	-1.0544717e-05
199	0xbc853e13	-0.01626495
200	0x3d002f79	0.031295273
201	0x3cdbaf4d	0.026816988
202	0x39199ff0	0.00014650798
203	0x3d20232d	0.039096046
204	0x3d00c1a8	0.031434685
205	0xbd57df0d	-0.052702952
206	0x3be5d0ce	0.007013417
207	0x3cf6fc52	0.030149613
208	0xbd713ea9	-0.058897648
209	0x3d28169f	0.0410372
210	0xbcda9f9f	-0.026687441
211	0x3cfbb7c1	0.03072727
212	0xbcf6cbb7	-0.030126436
213	0xbcf05c4e	-0.02934089
214	0xbd5eeaa3	-0.054422986
215	0x3c0b2245	0.008492057
216	0x3cbb0ff8	0.022834763
217	0xbd80aa57	-0.0628249
218	0x3cf82145	0.030289302
219	0x3d47c5b5	0.048772532
220	0x3d5aa13d	0.053376425
221	0xbd220a75	-0.039560754
222	0xbd61c9ce	-0.055124097
223	0x3cff63f8	0.031175599
224	0xbcb5cfaa	-0.022193749
225	0x3b16baf2	0.0022999612
226	0x3cf6da5b	0.030133417
227	0x3d348591	0.04407269
228	0xbc5ff4e7	-0.013669229
229	0xbd2b1777	-0.041770425
230	0x3c07dfdc	0.008293118
231	0x3c62bc0c	0.013838779
232	0x3d3e3fec	0.04644768
233	0xbd82d101	-0.063875206
234	0xbd755846	-0.059898637
235	0xbc9cc669	-0.019137578
236	0xbd7adb4e	-0.0612443
237	0x3ca0f6c1	0.019648911
238	0xb8b50f25	-8.6335735e-05
239	0xbd2b0189	-0.04174951
240	0xbd79969d	-0.06093465
241	0xbd5435f9	-0.051809285
242	0x3cedbbb4	0.029020168
243	0xbd81176d	-0.06303296
244	0x3c67f0a5	0.014156495
245	0xbd030c20	-0.031993985
246	0x3ccb883b	0.024845233
247	0x3c19601b	0.009361292
248	0x3a83806b	0.0010032778
249	0x3cd72e66	0.026267242
250	0xbd129049	-0.035782132
251	0xbcd70cc4	-0.026251204
252	0xbcdb657f	-0.026781796
253	0x3ca32253	0.019913828
254	0xbd57f8e6	-0.052727602
255	0x3c914897	0.017734809

network.0.bias f4 [128]
0	0x3d15433e	0.03644108
1	0x3b46c1f5	0.003032801
2	0x3c936bbb	0.017995706
3	0x3d2505e0	0.040288806
4	0xbd89db13	-0.06731238
5	0xbc3395f8	-0.010961048
6	0xbd5d5c63	-0.054043185
7	0x3d07fb08	0.033198386
8	0xbc9ad7f5	-0.018901804
9	0xbc66ebb2	-0.01409428
10	0xbd03878f	-0.0321117
11	0xbd0e1f79	-0.034697983
12	0xbd869149	-0.0657068
13	0xbd398827	-0.04529586
14	0x3d23c97f	0.039987084
15	0x3d046128	0.032319218
16	0xbd462f16	-0.04838475
17	0x3cf2fc96	0.029661458
18	0xbd879b93	-0.0662147
19	0xbcfe757d	-0.031061882
20	0x3cf6b191	0.030113967
21	0x3b37d815	0.002805238
22	0xbcea58e4	-0.02860684
23	0x3d1c699f	0.038186666
24	0x3cb74b30	0.02237472
25	0xbd82b289	-0.06381709
26	0x3d36e33f	0.044650313
27	0xbd05fb26	-0.032710217
28	0xbd1404c2	-0.03613735
29	0xbd8a1a09	-0.06743247
30	0x3d114d69	0.035474215
31	0x3d4aa854	0.049476936
32	0xbd89f5fb	-0.0673637
33	0xbcd9fb25	-0.026609013
34	0xbd77d7a5	-0.06050839
35	0x3d34afd7	0.044113006
36	0xbd77936f	-0.060443338
37	0x3d1f3436	0.03886815
38	0xbd545344	-0.05183722
39	0x3cd18f73	0.025581097
40	0xbd19f28e	-0.037584834
41	0xbd3c3242	-0.045946367
42	0xbd4b44c6	-0.049626134
43	0x3cbd6b5d	0.023122484
44	0xbd07d3b0	-0.033160865
45	0xbcd25060	-0.025673091
46	0xbd7852e3	-0.060625922
47	0xbcdabbf4	-0.026700951
48	0xbc4cbbbc	-0.012495931
49	0xbb81f24f	-0.003965653
50	0x3c5fc6cd	0.013658238
51	0xbc7ca850	-0.015420988
52	0xbd1798e9	-0.03701106
53	0xbc1c5243	-0.009541097
54	0x3d3ffb91	0.04687077
55	0x3d08553d	0.033284415
56	0xbd8d443a	-0.06897779
57	0xbccebd1c	-0.025236659
58	0xbc34b4f9	-0.011029475
59	0x3c89d5c3	0.016825562
60	0x3d2b52a9	0.041826878
61	0xbb14058e	-0.0022586319
62	0xbce617b7	-0.02808748
63	0xbc3f9921	-0.011694224
64	0xbd87b042	-0.066254154
65	0x3c009b3c	0.007849511
66	0x3c798601	0.015229703
67	0xbd1f8d9f	-0.03895342
68	0xbb86880b	-0.004105573
69	0x3c259aea	0.010107735
70	0xbd93f4d6	-0.07224433
71	0xbd2cf766	-0.042228125
72	0xbcc1abb6	-0.023641448
73	0xbd96a925	-0.073564805
74	0x3b2be5c3	0.0026229478
75	0xbd800ebf	-0.062528126
76	0x3ae28bca	0.0017284092
77	0xbd279150	-0.040910065
78	0x3d898812	0.067154065
79	0xbd874e19	-0.06606693
80	0x3d18af2c	0.037276432
81	0xbda32c32	-0.07967414
82	0x3d3d23d6	0.046176754
83	0x3d1ab9ea	0.037774958
84	0xbc4239a2	-0.011854561
85	0xbd3a6006	-0.04550173
86	0xbc9cdea8	-0.01914914
87	0xbd3786d5	-0.04480632
88	0xbd434c30	-0.04768008
89	0xbd665f16	-0.056243025
90	0xbd4a6794	-0.049415186
91	0x3c06d6cc	0.0082299225
92	0xbc2f7c95	-0.010710855
93	0x3b8260be	0.0039788177
94	0x3cd59c3e	0.026075479
95	0xbd5329e5	-0.051553626
96	0x3d1be37e	0.03805875
97	0xbd0e3104	-0.034714714
98	0xbd9a22a5	-0.07526139
99	0xbce2d56f	-0.027689664
100	0x3c9868ff	0.018604754
101	0xbd5b95b1	-0.053609554
102	0xbd9323d6	-0.071845695
103	0x3d220256	0.03955301
104	0xbcce5742	-0.025188092
105	0xbca6dedf	-0.020369945
106	0xbd0b7aaf	-0.034052547
107	0xbc845084	-0.016151674
108	0xbd7487c9	-0.059699807
109	0xbd8f462d	-0.06995807
110	0xbd91fa5c	-0.071278304
111	0x3b93df2f	0.0045126895
112	0xbd10d93c	-0.03536342
113	0x3d02b6b6	0.031912528
114	0xbd14b241	-0.03630281
115	0xbbf64b02	-0.007516266
116	0x3c1f5604	0.009725098
117	0x3b8306a3	0.003998594
118	0x3cdb82c9	0.026795762
119	0x3c9f6de9	0.019461589
120	0xbd4168f4	-0.04721923
121	0xbd4391dd	-0.047746528
122	0xbd96202f	-0.07330357
123	0xbd4b42a2	-0.049624093
124	0xbd308a5b	-0.043100696
125	0x3ac0e158	0.0014715595
126	0x3d227114	0.03965862
127	0x3ca05793	0.019573009

network.3.weight f4 [64, 128]
0	0x3c9dabcf	0.019246964
1	0x3d05771b	0.03258429
2	0xbcbd752c	-0.023127161
3	0xbda79c34	-0.0818409
4	0x3d6b8984	0.057504192
5	0x3d466a79	0.048441384
6	0xbcf493fb	-0.029855719
7	0x3cdeecdf	0.027212558
8	0x3d1e70d6	0.038681827
9	0xbd96c165	-0.07361106
10	0xbbbe4ab0	-0.0058072433
11	0x3c4245b7	0.011857442
12	0xbc482e2a	-0.012218038
13	0xbd4e8f76	-0.050429784
14	0x3bbce4cd	0.00576458
15	0x3da3ef95	0.08004681
16	0xbd759715	-0.059958536
17	0x3d55f7b9	0.0522382
18	0x3d266de3	0.04063214
19	0xbd8c5a12	-0.06853117
20	0x3d5898f6	0.05288025
21	0xbd966803	-0.073440574
22	0x3c2cab88	0.010538943
23	0xbc459c89	-0.012061247
24	0xbc1031fe	-0.008800982
25	0xbcf80590	-0.03027609
26	0xbcf6f233	-0.030144786
27	0xbe0ea04f	-0.1392834
28	0xbd2f2980	-0.042764187
29	0x3d83dac8	0.064382136
30	0x3b812662	0.003941343
31	0x3d190126	0.03735461
32	0x3d848815	0.06471268
33	0x3d3ac686	0.045599483
34	0xbbe3004e	-0.0069275266
35	0x3b58bc11	0.003307108
36	0x3c949f96	0.018142503
37	0xbd6fffef	-0.058593687
38	0xbd6d674c	-0.05795984
39	0x3cbc7d42	0.023008946
40	0x3caa011c	0.020752482
41	0xbd040ee0	-0.03224075
42	0x3d5d358a	0.054006137
43	0x3d30bf47	0.043151166
44	0xbc6f6cb8	-0.014613323
45	0xbcdb0dfd	-0.026740069
46	0xbc380431	-0.011231468
47	0xbd26be75	-0.040708978
48	0x3c93c2a0	0.01803714
49	0x3d334fc3	0.04377724
50	0x3cb46c3e	0.02202427
51	0x3be2c6c6	0.0069206683
52	0xbdad9e97	-0.08477514
53	0xbadef627	-0.0017010615
54	0xbda4a144	-0.080385715
55	0xbd9ec664	-0.07752684
56	0x3d54694a	0.051858224
57	0xbd504d9f	-0.050855275
58	0x3d4cddf5	0.050016362
59	0x3cfd0436	0.030885797
60	0xbdb1f24f	-0.08688795
61	0xbc7cf652	-0.015439587
62	0x3d8f5c9e	0.07000087
63	0xbd85d1e1	-0.06534172
64	0x3d3253b3	0.043536853
65	0x3bd00725	0.006348508
66	0xbd59532b	-0.05305783
67	0xbca543ad	-0.020173872
68	0xbbc12ff6	-0.00589561
69	0xbb84ad79	-0.004049
70	0xbda90663	-0.08253171
71	0x3d2a5dca	0.04159335
72	0x3cd7ed68	0.026358321
73	0x3d1e8a6e	0.038706236
74	0xbd9e8986	-0.07741074
75	0xbd69a42c	-0.057041332
76	0xbe678af9	-0.22611608
77	0xbd28611b	-0.041108232
78	0x3cfb5630	0.030680746
79	0xbcb16473	-0.021654343
80	0xbd928e08	-0.071559966
81	0xbbe6afd6	-0.0070400042
82	0xbd10c148	-0.035340577
83	0xbba9216a	-0.005161454
84	0xbc8c991f	-0.017162858
85	0x3b01f03b	0.0019827026
86	0x3d0d294d	0.034463216
87	0xbd8d8995	-0.06911007
88	0xbd8cb564	-0.06870535
89	0x3dad8e5b	0.08474418
90	0xbc954930	-0.018223375
91	0xbdb1d877	-0.086838655
92	0xbd0992e0	-0.033587337
93	0x3b27735f	0.0025550944
94	0xbcdc9f99	-0.02693157
95	0x3d489a2a	0.048975147
96	0xbd51546f	-0.051105913
97	0xbd804c70	-0.06264579
98	0xbe0826b6	-0.13296017
99	0xbcfc67b6	-0.030811172
100	0x3da40532	0.080088034
101	0x3be7dd06	0.0070759086
102	0x3b04dcbb	0.0020273167
103	0xbcbbd349	-0.022927897
104	0x3d8f79db	0.07005664
105	0xbb1992d9	-0.0023433475
106	0xbd648e60	-0.055799842
107	0x3adf1def	0.0017022471
108	0xbd5c654f	-0.053807553
109	0xbd643aba	-0.05572007
110	0xbcbbf0a2	-0.022941891
111	0xbd9fe4c4	-0.078073055
112	0xbdaa2402	-0.08307649
113	0x3d4616b5	0.0483615
114	0xbbf457d8	-0.007456761
115	0x3cd62623	0.026141232
116	0x3aea6c78	0.0017885109
117	0xbccd0c41	-0.025030257
118	0xbcaecc00	-0.02133751
119	0xbd5fadd6	-0.054609142
120	0xbd115dd3	-0.03548987
121	0xbd58a0b9	-0.052887652
122	0xbda7db86	-0.08196168
123	0x3c389635	0.011266281
124	0x3cee2bfb	0.029073706
125	0x3c7e31c5	0.015514796
126	0xbc869cf3	-0.016432261
127	0xbd862544	-0.065500766
128	0xbd8d800f	-0.06909191
129	0xbd5a6f03	-0.053328525
130	0xbd659be9	-0.05605689
131	0xbd070ecf	-0.032973107
132	0x3d61b9c4	0.0551088
133	0xbda738c9	-0.08165128
134	0x3d936c19	0.07198352
135	0xbd9c129a	-0.076207355
136	0xbd0e0e9f	-0.034681913
137	0x3d61daed	0.055140425
138	0x3bb73758	0.0055913143
139	0x3ce30f04	0.027717121
140	0x3da5f6ac	0.081036896
141	0xbd6d4a59	-0.05793223
142	0xbc2ed839	-0.010671669
143	0xbd058b7c	-0.032603726
144	0x3a24a838	0.000628117
145	0x3cb1ad21	0.021689
146	0x3be0f9cd	0.006865716
147	0x3d1613e4	0.036640063
148	0xbd59ffaf	-0.053222355
149	0x3d985199	0.074374385
150	0x3d946b2e	0.072470054
151	0xbdcac693	-0.09901156
152	0x3cc2933c	0.023751847
153	0x3d8093f6	0.06278221
154	0x3bda3f85	0.006660404
155	0xbcff93aa	-0.031198341
156	0x3cc76f34	0.024345018
157	0x3dacc5cb	0.084361635
158	0xbd28d8a2	-0.041222222
159	0xbda55cb7	-0.080743246
160	0xbdb29914	-0.087206036
161	0xbd27b508	-0.04094413
162	0x3c93c687	0.018039001
163	0xbda1e993	-0.07905879
164	0x3cba7536	0.022760969
165	0x3d0aa2b4	0.033846572
166	0xbd6fd53b	-0.05855296
167	0x3bea3004	0.007146837
168	0x3d866ab2	0.06563319
169	0xbd347471	-0.04405636
170	0x3d89b633	0.06724205
171	0xbd803476	-0.06260006
172	0xbd0384fc	-0.032109246
173	0xbaf74740	-0.0018865839
174	0x3d6fffa3	0.058593404
175	0x3d102d0a	0.035199203
176	0x3c2ad6b3	0.010427165
177	0xbdaeacfe	-0.085290894
178	0x3d08e751	0.033423726
179	0x3c91c15d	0.017792398
180	0xbd15aa7b	-0.036539536
181	0xbb9ac6ab	-0.00472339
182	0xbd5e577d	-0.054282654
183	0xbd6e9e57	-0.058256473
184	0x3a9cb0b3	0.0011954516
185	0x3d9d2553	0.07673135
186	0xbd9d2bd0	-0.07674372
187	0x3d847065	0.0646675
188	0x3d90098d	0.07033072
189	0x3d80bddf	0.06286215
190	0x3d71bc01	0.059017185
191	0xbd91dcc4	-0.07122186
192	0xbc2ab270	-0.010418519
193	0x3d264896	0.040596567
194	0xbd84f3c1	-0.06491805
195	0xbc9b63cd	-0.018968487
196	0xbd48476f	-0.04889625
197	0xbdc035bc	-0.09385249
198	0x3d9f0e73	0.07766428
199	0xbd07314f	-0.03300601
200	0xbd326346	-0.043551706
201	0x3d90acf0	0.07064235
202	0x3d527477	0.0513806
203	0x3cff0b14	0.031133212
204	0xbd1ceaf0	-0.03830999
205	0xbad65455	-0.0016352037
206	0xbd3c6f96	-0.046004854
207	0x3cf068da	0.029346872
208	0xbd5575d6	-0.05211433
209	0xbc3798f6	-0.011205902
210	0xbb3907dc	-0.0028233444
211	0xbd2ee9a3	-0.042703282
212	0xbd3cb259	-0.046068523
213	0x3d57d692	0.052694865
214	0xbdb6034e	-0.08887349
215	0xbc30686d	-0.010767085
216	0x3cef782f	0.029232113
217	0xbc64c413	-0.013962763
218	0x3d36813c	0.04455684
219	0xbd4187a5	-0.0472485
220	0x3d9f41fe	0.07776259
221	0x3cc12fd5	0.023582378
222	0x38e8cc41	0.00011100667
223	0x3d74f38c	0.059802577
224	0x3badb1c4	0.0053007323
225	0x3d54cd52	0.05195362
226	0x3d5b15a1	0.053487424
227	0xbda58dda	-0.08083697
228	0x3c607660	0.013700098
229	0x3d563362	0.052295096
230	0xbd4e7c8d	-0.05041175
231	0xbcc64e84	-0.024207361
232	0xbd80a325	-0.06281117
233	0x3d0b356f	0.033986505
234	0x3d2308a6	0.03980317
235	0x3d838b63	0.0642307
236	0xbc9d6979	-0.019215332
237	0x3c7eed7d	0.015559551
238	0xbbc449c6	-0.00599024
239	0xbdb687fe	-0.08912657
240	0x3d875ffe	0.06610106
241	0x3cdcfbdf	0.02697557
242	0x3d960c92	0.07326616
243	0x3c2da7ca	0.010599086
244	0x3d9831a7	0.074313454
245	0x3cf7ccbf	0.030248998
246	0x3d40768f	0.046988066
247	0xbd851522	-0.064981714
248	0xbd7aef92	-0.06126363
249	0x3d84cdee	0.064845905
250	0x3d01183b	0.03151725
251	0x3d1dded7	0.038542595
252	0xbda580ec	-0.080812305
253	0x3cccc2b9	0.024995195
254	0xbcdd1b09	-0.02699043
255	0x3d962b7b	0.07332512

network.3.bias f4 [64]
0	0x3ea58562	0.32328326
1	0xbd16e508	-0.036839515
2	0x3d37a8d3	0.044838738
3	0xbd9bb1c9	-0.07602269
4	0x3d2b6964	0.041848555
5	0x3ed72603	0.42021188
6	0xbd871178	-0.06595129
7	0xbbaa56cd	-0.0051983357
8	0x3dc297f7	0.09501641
9	0x3e67879a	0.22610322
10	0xbd947b08	-0.07250029
11	0x3de764e5	0.11298541
12	0x3dc19548	0.09452301
13	0x3ca3e788	0.020007864
14	0x3e396a54	0.18106967
15	0x3e1a06cd	0.15041657
16	0x3cf63665	0.030055234
17	0x3de2a45a	0.11066504
18	0x3da734a8	0.0816434
19	0xbdab0ab3	-0.0835165
20	0x3dc56728	0.09638816
21	0x3c1a2e09	0.00941039
22	0x3d8b3278	0.067967355
23	0xbe3971fa	-0.18109885
24	0x3e111d32	0.14171293
25	0xbdcbeae4	-0.09956911
26	0xbc3430fe	-0.010998009
27	0xbd61a2d7	-0.055086937
28	0xbdb261bf	-0.0871005
29	0xbca3e642	-0.020007256
30	0x3e7a3a1b	0.24436228
31	0x3e9505f2	0.29106098
32	0x3e17fd80	0.14842796
33	0x3e93b97f	0.2885246
34	0x3e17f3c4	0.14839083
35	0x3e80625b	0.2507504
36	0x3e29d6c7	0.16585837
37	0xbdf2e902	-0.11860849
38	0x3e83b265	0.25722042
39	0x3ce6fd86	0.028197061
40	0xbc2f0c07	-0.01068402
41	0xbc4fdec2	-0.012687387
42	0x3ed681a6	0.4189579
43	0x3e8357ec	0.25653017
44	0x3d7ad548	0.061238557
45	0xbcf6cc5b	-0.030126741
46	0x3e8a9032	0.27063137
47	0xbe23da9b	-0.1600136
48	0x3d023658	0.031790107
49	0xbdccfc03	-0.10009005
50	0x3db60991	0.088885434
51	0x3ee6eb2e	0.45101303
52	0x3e9657cd	0.29363862
53	0xbe0dc904	-0.13846213
54	0x3f1a6e94	0.6032498
55	0xbc30bae5	-0.010786747
56	0xbd6742a7	-0.05646005
57	0xbd677cf0	-0.056515634
58	0x3e79a5a2	0.2437959
59	0x3e2ee167	0.17078172
60	0x3d404e40	0.046949625
61	0xbd550fcb	-0.052017014
62	0x3eb197ff	0.34686276
63	0x3d8da5c1	0.06916381

network.6.weight f4 [32, 64]
0	0x3da92632	0.08259238
1	0xbce400ea	-0.027832467
2	0xbe2c869b	-0.16848223
3	0xbd791af4	-0.06081672
4	0x3deaf65e	0.11472772
5	0xbd8d0977	-0.06886571
6	0xbd675d3b	-0.056485396
7	0xbc9dd81a	-0.019268084
8	0x3d2c7410	0.042102873
9	0xbdf94901	-0.121721275
10	0x3c7683e9	0.015046098
11	0xbda62a29	-0.0811351
12	0x3dcdd9d5	0.10051314
13	0x3d76d71f	0.06026375
14	0xbd941141	-0.072298534
15	0xbb992688	-0.0046737827
16	0xbdb5dc10	-0.08879864
17	0xbd3a8c66	-0.04554405
18	0xbd92c5f6	-0.07166664
19	0x3e062f5c	0.13104004
20	0x3cffedcf	0.031241326
21	0x3d042db5	0.032270152
22	0xbdf01c6b	-0.1172417
23	0xbdc40ca9	-0.09572727
24	0xbd16e5ba	-0.036840178
25	0xbdf022df	-0.11725401
26	0x3dc47d5e	0.095942244
27	0xbde69ad6	-0.11260001
28	0xbd1fffff	-0.039062496
29	0xbd140145	-0.036134023
30	0x3c812cb7	0.015768392
31	0xbc9d3eda	-0.019195009
32	0xbc584f89	-0.013202556
33	0x3c8c7f55	0.01715056
34	0xbc0befb6	-0.008541038
35	0xbd671dff	-0.05642509
36	0x3e0a9a5e	0.13535449
37	0x3dfaab5d	0.12239716
38	0xbd9901d3	-0.07471051
39	0x3d08709f	0.03331053
40	0xbd90b56f	-0.07065856
41	0x3dbecf2b	0.09316858
42	0x3d8b7b79	0.0681066
43	0xbd3c0dc7	-0.045911577
44	0x3ca7c2c1	0.020478608
45	0x3d85c930	0.06532514
46	0x3dd7ab39	0.10530705
47	0x3d9efb85	0.07762817
48	0xbcad1b25	-0.021131108
49	0xbd920caa	-0.07131322
50	0xbd0a73c7	-0.03380182
51	0xbe37f56b	-0.17964713
52	0x3be36ba2	0.006940321
53	0x3d5ba22b	0.053621452
54	0x3d87012c	0.065920204
55	0xbdaba43e	-0.08380936
56	0xbd7b2e2a	-0.061323322
57	0xbddc0e14	-0.10744873
58	0xbdc0f519	-0.09421749
59	0xbdf3a1e2	-0.11896111
60	0xbd1e6055	-0.038666088
61	0xbe3287bb	-0.1743459
62	0x3de514d4	0.11185613
63	0x3d74f329	0.059802208
64	0x3d106446	0.03525188
65	0x3c521896	0.012823245
66	0x3d26cf2f	0.04072493
67	0xbdb91c4d	-0.09038601
68	0x3cba87ca	0.022769827
69	0xbd746fff	-0.05967712
70	0x3baaa021	0.005207077
71	0x3daf3ac9	0.08556134
72	0xbd27e184	-0.040986553
73	0xbde7323b	-0.112888776
74	0x3ddb5598	0.10709685
75	0xbe010d12	-0.12602642
76	0x3d42031b	0.047366243
77	0xbdf0c779	-0.117567964
78	0x3c41f426	0.011837995
79	0x3e009f36	0.12560734
80	0xbd766904	-0.060158744
81	0xbd5c4805	-0.05377962
82	0xbddf2035	-0.10894815
83	0xbd15274c	-0.03641443
84	0xbd3c1e09	-0.04592708
85	0xbcb196de	-0.021678384
86	0x3d774724	0.06037058
87	0x3dcdafaa	0.10043271
88	0x3c4fe819	0.012689614
89	0x3c687ff4	0.014190663
90	0x3c9df0fb	0.019279948
91	0xbcfbc4c2	-0.03073347
92	0xbdf3fd8f	-0.11913597
93	0xbdf56a91	-0.119832166
94	0xbd61522c	-0.055010006
95	0xbc2a2e46	-0.010387009
96	0x3d25d6fc	0.04048823
97	0xbde16977	-0.11006444
98	0xbdf4658a	-0.119334295
99	0xbdf1c027	-0.11804228
100	0x3c03a390	0.008034602
101	0xbcff4a44	-0.031163342
102	0x3c55f426	0.013058698
103	0x3ddeb0d5	0.10873572
104	0x3dced048	0.1009832
105	0xbd1ad27f	-0.0377984
106	0xbd732aff	-0.059367176
107	0x3d213035	0.039352614
108	0x3af85358	0.0018945737
109	0x3d8aba52	0.06773819
110	0x3d15fb8c	0.036616847
111	0xbd024d6d	-0.03181212
112	0x3ce48e31	0.027899833
113	0x3d360406	0.04443743
114	0xbd6e8a1e	-0.058237188
115	0x3d66d0b4	0.05635138
116	0xbd217ef7	-0.039427724
117	0x3d42067f	0.047369476
118	0x3d61c4bb	0.055119257
119	0x3c002743	0.007821861
120	0x3deafbf7	0.1147384
121	0x3be26132	0.0069085592
122	0xbd91bbb1	-0.071158774
123	0xbdccf69d	-0.10007975
124	0x3dc42ca0	0.09578824
125	0x3bb6f8e0	0.0055838674
126	0x3ce5c46a	0.02804776
127	0xbd2f9d7f	-0.04287481
128	0xbdd40309	-0.103521414
129	0x3d9b65b3	0.07587757
130	0xbd7e3508	-0.062062293
131	0x3d244ac4	0.040110365
132	0x3c8d987a	0.01728462
133	0xbda22911	-0.07917989
134	0x3ddfeb5a	0.109335616
135	0xbdada8b5	-0.08479444
136	0xbc4e1941	-0.012579263
137	0xbca277d3	-0.019832527
138	0xbdd039c1	-0.10167266
139	0xbd81d287	-0.06338983
140	0xbd81a5dc	-0.06330463
141	0x3dd03ee1	0.10168243
142	0x3cceedcc	0.025259875
143	0x3d3c690d	0.04599862
144	0x3e064850	0.13113523
145	0x3d098476	0.03357359
146	0x3b15a614	0.0022834586
147	0xbd930f54	-0.07180658
148	0x3dbaefb6	0.091277525
149	0xbd52cdab	-0.05146567
150	0x3d36142a	0.044452824
151	0xbd6248af	-0.055245098
152	0xbdcbdb4b	-0.09953936
153	0x3ce388ad	0.027775133
154	0x3da9e04f	0.082947366
155	0x3dc7c1e0	0.097537756
156	0x3d4a32b0	0.049364746
157	0xbd0ed548	-0.03487137
158	0x3e094d09	0.13408293
159	0x3da97aff	0.08275413
160	0xbd2fb2e3	-0.04289521
161	0x3cce8660	0.02521056
162	0x3ba91736	0.0051602377
163	0x3d6dd040	0.05805993
164	0xbde7dbbf	-0.1132121
165	0xbbe7abbb	-0.0070700324
166	0x3d87664f	0.06611311
167	0xbd9e10f1	-0.07718075
168	0x3cb7947f	0.022409676
169	0xbd9f8b9d	-0.07790301
170	0x3d9ceb1b	0.0766203
171	0x3d8ea0f4	0.06964293
172	0xbb8d82d1	-0.004318573
173	0xbe0186b6	-0.12649044
174	0xbd85fc80	-0.06542301
175	0x3cbf88a3	0.023380583
176	0xbbb96111	-0.005657323
177	0xbd9ffe4f	-0.078121774
178	0x3de4e89e	0.11177181
179	0x3d24324d	0.040087033
180	0x3d620f67	0.05519047
181	0x3d09731b	0.03355704
182	0xbdcd4514	-0.10022941
183	0x3dba92ed	0.09110055
184	0x3d7e9778	0.06215617
185	0xbbd5f366	-0.0065292595
186	0x3dfcc534	0.12342301
187	0xbde677d7	-0.112533264
188	0xbd8c0455	-0.06836764
189	0xbd4dd18b	-0.050248664
190	0xbdb6a26b	-0.089176975
191	0x3dbcd28f	0.09219848
192	0x3d7c8a5e	0.061655395
193	0xbda2615e	-0.079287276
194	0xbdc3f934	-0.09569016
195	0x3d98fd24	0.07470158
196	0x3e014732	0.12624815
197	0x3de360fa	0.11102481
198	0x3cb37ed8	0.02191107
199	0xbd72a83d	-0.059242476
200	0xbd9f03f2	-0.077644244
201	0x3ded2857	0.1157996
202	0xbd7eb5d8	-0.06218514
203	0xbaad25da	-0.0013210133
204	0x3ca1a5e4	0.019732423
205	0xbd2f8bcd	-0.042857934
206	0x3e00b020	0.12567186
207	0xbc9639ec	-0.018338166
208	0x3c5f96af	0.013646766
209	0x3ce34c4b	0.02774634
210	0x3d15358b	0.036428016
211	0x3c078886	0.008272296
212	0xbd6e1c7b	-0.05813263
213	0x3d60899b	0.05481873
214	0xbd2d7c5f	-0.042354938
215	0x3c950186	0.018189203
216	0xbd5e83cc	-0.05432491
217	0xbda25507	-0.07926374
218	0x3d6f656c	0.058446333
219	0xbd9b67a7	-0.075881295
220	0xbdee63e9	-0.1164015
221	0x3d22e435	0.039768416
222	0x3dc024ca	0.09382017
223	0x3bd05fe4	0.0063590873
224	0xbc619889	-0.013769277
225	0x3d30920e	0.04310804
226	0xbd9021bb	-0.070376836
227	0xbdf01105	-0.11721996
228	0x3daad330	0.08341062
229	0x3d298a77	0.041391816
230	0xbd1d5d2f	-0.038418945
231	0xbddf621d	-0.109073855
232	0x3defd0d3	0.11709752
233	0xbdb50703	-0.08839228
234	0xbcf1db11	-0.029523404
235	0x3dd84907	0.10560804
236	0xbdb62e58	-0.08895558
237	0x3dd28176	0.10278599
238	0xbc824107	-0.015900148
239	0x3d8b75bf	0.06809568
240	0xbdcd7017	-0.10031145
241	0xbdd3a9e5	-0.10335139
242	0x3df3eb2f	0.11910092
243	0xbcc3fe63	-0.023925012
244	0x3c964ec4	0.018348105
245	0x3dd34f72	0.10317887
246	0xbc973779	-0.018459069
247	0xbcf32df7	-0.029685004
248	0xbdbada0f	-0.091236226
249	0xbdb0e811	-0.08638013
250	0x3d99a183	0.07501509
251	0x3de28029	0.11059601
252	0xbceb1db6	-0.02870069
253	0xbcb2d642	-0.021830682
254	0xbd81b63d	-0.06333587
255	0x3e09ccd4	0.13457042

network.6.bias f4 [32]
0	0x3f11de26	0.56979597
1	0x3ea050f5	0.31311765
2	0x3ee00f45	0.4376165
3	0x3f280d63	0.65645427
4	0x3f19d701	0.60093695
5	0x3ef0962a	0.46989566
6	0xbe3ec16e	-0.18628475
7	0xbd8698a1	-0.065720804
8	0x3f2c0019	0.6718765
9	0xbe884fac	-0.26623285
10	0x3f3f0d31	0.74629503
11	0x3e705c3a	0.23472682
12	0xbe438424	-0.19093376
13	0x3ed7d561	0.42154983
14	0x3ec9f72f	0.394464
15	0x3eda2908	0.4260943
16	0xbef5732b	-0.4793943
17	0xbe0ad955	-0.13559468
18	0x3f10adb9	0.5651508
19	0x3f1bc0ae	0.6084088
20	0x3f09df40	0.5385628
21	0xbe7f1d9a	-0.24913636
22	0xbf1493f9	-0.5803829
23	0x3f129a66	0.57266843
24	0x3ef78b4a	0.48348457
25	0xbe370218	-0.17871892
26	0x3ed87d09	0.42282894
27	0x3e940631	0.28910974
28	0xbe2c86ba	-0.16848269
29	0x3eae6f71	0.34069398
30	0x3eb267f8	0.34844947
31	0xbebb1f19	-0.36547163

network.8.weight f4 [1, 32]
0	0x3d006da9	0.03135458
1	0x3e3297ae	0.17440674
2	0x3d10129d	0.035174
3	0x3d971c30	0.07378423
4	0x3d6fde5e	0.058561675
5	0x3d0a8abf	0.033823725
6	0xbe128d75	-0.14311774
7	0xbdd564fc	-0.10419652
8	0x3dd1710e	0.102266416
9	0x3cb4dd8c	0.022078298
10	0x3d2640f6	0.040589295
11	0x3e02d4fa	0.12776557
12	0xbd32437e	-0.043521397
13	0x3d955a62	0.0729263
14	0x3e061461	0.13093711
15	0x3dab3a3f	0.08360719
16	0xbd0da1b3	-0.034578037
17	0xbc25141d	-0.010075596
18	0x3d5798d8	0.052635998
19	0x3e0227ae	0.12710449
20	0x3e1bd06c	0.15216225
21	0xbbff10d4	-0.0077839885
22	0xbd343e8f	-0.044004973
23	0x3dcef3d8	0.10105103
24	0x3e17d682	0.14827922
25	0xbe06f2b6	-0.13178524
26	0x3e1941d8	0.14966524
27	0x3d74da81	0.059778694
28	0xbdd0ecf3	-0.102014445
29	0x3d7c0750	0.06153041
30	0x3db2ba2e	0.08726917
31	0xbdd2750a	-0.1027623
