1_KORD_Self_Regression/best_model.pth (torch, 182455 bytes, 7 tensors)

network.0.weight f4 [128, 267]
0	0x3cdf5103	0.02726031
1	0x3ca82999	0.020527648
2	0xba5819e5	-0.00082436047
3	0xbd945b22	-0.07243945
4	0xbcfe8b08	-0.031072155
5	0xbd07153e	-0.032979243
6	0xbd52faba	-0.051508643
7	0x3d047eda	0.032347538
8	0x3ccb7fba	0.024841178
9	0xbd2a104c	-0.04151945
10	0xbbfbc17f	-0.0076829786
11	0xbce0a501	-0.02742243
12	0x3ccea329	0.025224285
13	0x3cc45b56	0.023969334
14	0x3d4d53cf	0.050128754
15	0xbcd4065d	-0.02588194
16	0x3b402c90	0.0029323436
17	0x3cb1b1d9	0.02169125
18	0xbd53e311	-0.05173022
19	0x3c1c2230	0.009529635
20	0x3c9c14b6	0.019052844
21	0x3cb98777	0.022647602
22	0xbd76390c	-0.060112998
23	0x3d4886ae	0.048956566
24	0xbc46a445	-0.012124126
25	0xbd52a06d	-0.051422525
26	0xbc308f6b	-0.010776381
27	0xbd3b7107	-0.04576209
28	0x3d1f3c54	0.038875893
29	0x3b799961	0.0038085806
30	0x3d290ca7	0.04127183
31	0x3d22b08a	0.039719142
32	0xbd66bbbf	-0.056331392
33	0x3d140ad6	0.036143146
34	0x3c98f34e	0.018670704
35	0x3ca0d67a	0.01963352
36	0xbd67f705	-0.05663206
37	0x3c0d39a3	0.008619699
38	0x3c490b7f	0.012270807
39	0xbd790d30	-0.060803592
40	0x3c83279a	0.016010094
41	0x3d002455	0.03128465
42	0xbc58a05b	-0.0132218255
43	0x3d065d32	0.03280372
44	0xbc7f5764	-0.0155848
45	0xbd3ea4de	-0.04654395
46	0x3bd8a41a	0.0066113593
47	0xbd3328da	-0.04374013
48	0x3b13c954	0.002255042
49	0x3c8b182f	0.016979305
50	0xbc8620d2	-0.016373072
51	0xbc2b75c8	-0.010465093
52	0x3c2611a3	0.010136041
53	0xbca16be5	-0.019704768
54	0xbc2bc917	-0.010484955
55	0x3d0e7945	0.03478362
56	0xbd0885db	-0.03333078
57	0x3d617f25	0.055052895
58	0x3d18c6ec	0.03729908
59	0xbc9c192d	-0.019054973
60	0x3a0b2038	0.000530723
61	0x3d6d2cb6	0.057903968
62	0xbd2a5b46	-0.04159095
63	0xbce5664d	-0.028002882
64	0xbd28feb7	-0.04125854
65	0x3cdd1c8b	0.02699115
66	0xbc5c1fca	-0.0134353135
67	0x3c8098c2	0.01569784
68	0x3d191c20	0.037380338
69	0xbc0d30b3	-0.008617568
70	0x3d6eeb46	0.058329843
71	0xbbb7ce11	-0.005609282
72	0xbc40b9b0	-0.011763021
73	0xbd2e083d	-0.042488325
74	0x3bdc1cdf	0.006717309
75	0x3b5d6a3f	0.0033785251
76	0x3d16cedb	0.036818366
77	0xbd2f6b69	-0.042827044
78	0x3c2cc51e	0.010545043
79	0xbd601e85	-0.054716606
80	0xbad2857e	-0.0016061512
81	0x3d06c5cc	0.032903478
82	0x3cb123a3	0.021623438
83	0xbce0eccf	-0.02745667
84	0xbd460275	-0.048342187
85	0xbd8a1174	-0.0674161
86	0x3d34aa40	0.044107676
87	0x3c63c473	0.013901818
88	0xbd5d2066	-0.053985976
89	0xbcf5fe45	-0.030028472
90	0xbc67c458	-0.014145933
91	0x3d38a6a0	0.04508078
92	0x3c54237e	0.012947915
93	0xbc9d37cc	-0.019191645
94	0xbd7677b6	-0.06017276
95	0x3d06f8d6	0.032952152
96	0xbc58477b	-0.013200636
97	0xbc66746c	-0.014065843
98	0x3d2e979f	0.042625066
99	0xbd16802a	-0.03674332
100	0x3d39f2d1	0.045397583
101	0xbd2f83a5	-0.042850155
102	0xbcb738de	-0.022365984
103	0xbc856961	-0.0162856
104	0x3b133ab3	0.0022465407
105	0x3c8bee37	0.017081363
106	0x3d0a5f3c	0.03378223
107	0x3b751508	0.0037396569
108	0xbd4cb326	-0.049975537
109	0x3d206617	0.03915986
110	0x3af3acbf	0.0018590911
111	0x3cb08072	0.021545622
112	0x3c70a4d3	0.014687735
113	0xbd0cd35d	-0.03438126
114	0xbc918b79	-0.017766701
115	0xbd96393f	-0.073351376
116	0xbbabbda0	-0.005241111
117	0xbce49473	-0.027902817
118	0x3b99bf3b	0.004691986
119	0xbc3169ce	-0.010828448
120	0xbd89f4d9	-0.06736154
121	0x3b6f53d8	0.003651848
122	0xbd139cc7	-0.036038186
123	0xbd25b227	-0.040453102
124	0xbd74f88a	-0.059807338
125	0xbbb60410	-0.0055546835
126	0xbc2049eb	-0.009783248
127	0xbb0c0c0b	-0.0021369483
128	0xbccdb3ac	-0.025110088
129	0xbd62e676	-0.055395566
130	0x3b4cd337	0.0031253824
131	0xbd687824	-0.0567552
132	0xbc967629	-0.01836689
133	0xbd81357a	-0.06309028
134	0x39b6f1ee	0.00034893997
135	0xbc6c476b	-0.014421324
136	0xbd269108	-0.040665656
137	0xbcb64e29	-0.022254067
138	0xbccf6b84	-0.025319822
139	0xbd27cfa9	-0.040969525
140	0x3ced8c21	0.028997483
141	0xbaa1c41d	-0.0012341772
142	0xbc09f1b5	-0.008419444
143	0xbd794545	-0.060857076
144	0xbc14ab56	-0.009074053
145	0x3d0ff56a	0.035146154
146	0xbc881f33	-0.01661644
147	0x3d01bcc4	0.03167416
148	0xbd0f38ed	-0.034966398
149	0xbbbd31a7	-0.0057737413
150	0x3d8b4b6d	0.06801496
151	0xbd138387	-0.036014106
152	0xbc78931c	-0.015171792
153	0xbc820c40	-0.015874982
154	0xbd06b5b4	-0.03288813
155	0xbaee73ea	-0.0018192504
156	0xbcaca360	-0.021073997
157	0x3d8987d7	0.067153625
158	0x3cb1a098	0.021683022
159	0xbad5cade	-0.001631107
160	0x3b107c5f	0.0022046787
161	0x3d236340	0.039889574
162	0xbd0c4ffe	-0.034255974
163	0x3d58324d	0.052782346
164	0xbd0d3a2e	-0.034479313
165	0x3b86414f	0.004097141
166	0x3d6fff52	0.0585931
167	0xbbe300ac	-0.0069275703
168	0xbd735e3e	-0.05941605
169	0xbd3a8459	-0.045536373
170	0xbd62feab	-0.05541865
171	0x3ce3e65e	0.027819809
172	0xbd2b2fc6	-0.041793607
173	0xbd852964	-0.06502035
174	0x3cb8449f	0.022493659
175	0xbc324edc	-0.010883059
176	0xbb1c6007	-0.0023860948
177	0xbd3c2d7f	-0.045941826
178	0xbcfb169a	-0.030650426
179	0xbc27ea3d	-0.010248718
180	0xbd273412	-0.040821142
181	0xbcb63ee9	-0.022246795
182	0xbd8f1d73	-0.06988039
183	0xbd4d46eb	-0.05011646
184	0x3d3684a1	0.04456008
185	0x3c34945a	0.011021698
186	0x3baec186	0.0053331284
187	0xbd8a8b25	-0.06764821
188	0xbd11108d	-0.035416175
189	0x3d381c01	0.04494858
190	0xbd5966dc	-0.05307661
191	0x3d0141db	0.031556945
192	0xbd3b7308	-0.045764
193	0xbd227b2a	-0.03966824
194	0xbd2f1b9c	-0.04275094
195	0xbd210a63	-0.039316546
196	0xbc5b13f2	-0.013371455
197	0xbb49a832	-0.0030770418
198	0xbc6d41b4	-0.014480997
199	0xbd4f9ec4	-0.05068852
200	0xbd25e8d4	-0.040505245
201	0xbd5b2d79	-0.053510163
202	0x3cd631c2	0.026146773
203	0x3cefbe22	0.029265467
204	0x3ce164cb	0.027513882
205	0x3d3bc874	0.045845464
206	0xbc844e8f	-0.01615074
207	0xbc1c8953	-0.009554225
208	0x3ca69372	0.02033398
209	0x3d0c6987	0.034280326
210	0xbb89d14d	-0.004205859
211	0x3cbf124e	0.023324158
212	0x3ccf0831	0.02527246
213	0xbc66df15	-0.014091273
214	0xbc1a690f	-0.009424462
215	0xbd62d45b	-0.0553783
216	0x3c778c8b	0.015109192
217	0xbd089c2a	-0.033352055
218	0x3c98c20d	0.018647218
219	0xba0dddd4	-0.0005411778
220	0x3d4ab5c1	0.04948974
221	0x3d349d66	0.04409542
222	0xbd48a6ef	-0.048987325
223	0xbd3ec510	-0.046574652
224	0x3cb96403	0.022630697
225	0xbcc94138	-0.024567232
226	0x3b711742	0.0036787544
227	0xbd173b85	-0.036921997
228	0x3d44b415	0.048023302
229	0xbc92b221	-0.017907204
230	0xbcafef9e	-0.021476563
231	0x3d0005dd	0.03125559
232	0xbd35e249	-0.044405255
233	0xbd3c365c	-0.04595028
234	0x3cbdc01b	0.023162892
235	0xbd430f63	-0.047622096
236	0xbbf2faec	-0.007415166
237	0xbce5bf2d	-0.028045261
238	0xbbb842e6	-0.0056232093
239	0xbd4b9251	-0.049700085
240	0x3d4ef63a	0.05052779
241	0xbd298bbe	-0.041393034
242	0x3c458673	0.012055981
243	0xbd3d0a71	-0.046152536
244	0x3c870c6b	0.016485414
245	0x3be6cd01	0.0070434813
246	0xbb6d24b2	-0.0036185202
247	0x3ab87635	0.0014073314
248	0xbce8ab5d	-0.028402025
249	0xbcc85755	-0.024455706
250	0x3d3fa6ca	0.04678992
251	0xbd365c54	-0.044521645
252	0xbd1a8260	-0.03772199
253	0x3d66915f	0.05629098
254	0xbd3c3815	-0.04595192
255	0x3ca7b7ff	0.020473478

network.0.bias f4 [128]
0	0xbaa089c7	-0.0012248092
1	0x3d165a10	0.036706984
2	0xbd5de17e	-0.054170124
3	0xbd5ccc27	-0.053905632
4	0x3d94747a	0.07248779
5	0xbcca7f80	-0.024719
6	0x3bf07d18	0.007339131
7	0xbd24b628	-0.04021278
8	0x3c24f2d7	0.010067663
9	0x3cf46d4e	0.029837277
10	0xbd02bf6b	-0.03192083
11	0xbcb3f481	-0.021967174
12	0x3c8340b3	0.016022062
13	0xbd285018	-0.04109201
14	0xb8d98126	-0.00010371422
15	0xbaabe1bd	-0.001311354
16	0xbd568bae	-0.052379303
17	0x3c110562	0.008851381
18	0xbd8fdd80	-0.0702467
19	0x3c729648	0.014806338
20	0xbd76714d	-0.060166646
21	0x3d2d619e	0.042329423
22	0x3cda853f	0.026674865
23	0xbd4cfaeb	-0.05004398
24	0xbca29b71	-0.01984951
25	0x3cb91722	0.022594038
26	0xbb353e71	-0.0027655626
27	0xbd1966c1	-0.03745151
28	0xbd85b43b	-0.06528517
29	0xbc1e5ff0	-0.009666428
30	0xbd072aa2	-0.032999642
31	0xbce48a2d	-0.027897919
32	0xbcc0d945	-0.023541102
33	0x3d3b4841	0.045723204
34	0xbd6559e1	-0.05599392
35	0x3bfa58b5	0.0076399692
36	0x3d477ebf	0.04870486
37	0xbd2fb210	-0.042894423
38	0xbd16041b	-0.03662501
39	0xbd4a8291	-0.049440924
40	0xbc11b58d	-0.008893383
41	0xbc8d1609	-0.017222421
42	0xbc5514e5	-0.01300547
43	0xbcc2c9a5	-0.023777792
44	0x3c8776cf	0.016536145
45	0xbd08d0ae	-0.033402137
46	0xbd0238db	-0.031792503
47	0xbd3fd70c	-0.046835944
48	0xbc5e35b0	-0.013562605
49	0xbd88912d	-0.06668315
50	0xbd937c50	-0.07201445
51	0x3b8c6040	0.004283935
52	0x3d510a5d	0.051035274
53	0x3d20e37c	0.039279446
54	0x3c54f29b	0.012997295
55	0xbcc50046	-0.024047982
56	0xbd95be86	-0.0731173
57	0x3cc34158	0.02383487
58	0xbc267435	-0.010159542
59	0x3cfab4f6	0.030603867
60	0xbd53f9ea	-0.05175201
61	0x3c913978	0.017727599
62	0xbd3c42a6	-0.045962
63	0x3c421ff6	0.01184844
64	0xbd907f68	-0.07055551
65	0x3cffa8a0	0.031208336
66	0xbd7e5614	-0.06209381
67	0x3d0ee937	0.03489038
68	0x3bd05e0b	0.006358867
69	0x3bef7f7a	0.0073088976
70	0xbd6f49c6	-0.058419965
71	0x3bd7ce10	0.006585844
72	0x3b014c08	0.0019729156
73	0xbd75494f	-0.059884366
74	0x3d34f2d4	0.04417689
75	0xbd68384e	-0.05669432
76	0xbc6674d0	-0.014065936
77	0x3c005341	0.007832349
78	0x3cb4d9e8	0.022076562
79	0xbd129438	-0.035785884
80	0x3d105cfb	0.035244923
81	0xbd090654	-0.0334533
82	0xb983bbbf	-0.0002512615
83	0xbd0bf3eb	-0.034168165
84	0xbc85986b	-0.01630803
85	0xbd97838a	-0.07398136
86	0x3d023d18	0.031796545
87	0xbca2a360	-0.019853294
88	0x3cacd47d	0.021097416
89	0x3d8e9b6b	0.069632374
90	0xbd234bff	-0.039867397
91	0xb8fff10c	-0.00012204246
92	0x3d2a11ee	0.041521005
93	0xbd987a5a	-0.07445212
94	0xbd537cdb	-0.051632743
95	0x3d0d3683	0.034475815
96	0xbbc0ba00	-0.005881548
97	0x3c800cf9	0.015631186
98	0x3cd0919d	0.025460059
99	0x3d18edbb	0.037336092
100	0x3d38bcbb	0.045101862
101	0xbd0aa15e	-0.033845298
102	0x3bf9516a	0.0076085823
103	0xbcf0ee95	-0.02941064
104	0x3c95fb51	0.018308314
105	0xbb4d1159	-0.0031290858
106	0xbd3824d3	-0.044956993
107	0x3c543e6d	0.012954337
108	0x3ba8217f	0.005130946
109	0xbb46e870	-0.0030350946
110	0x3c543ce0	0.012953967
111	0xbd42c3f6	-0.047550164
112	0xbd55ca40	-0.052194834
113	0x3d0344b0	0.032047927
114	0xbd20d213	-0.039262842
115	0xbd395317	-0.045245256
116	0xbcc3a3bb	-0.023881784
117	0xbc3688d1	-0.011141018
118	0xbce70805	-0.028202066
119	0x3bbf5f51	0.00584022
120	0x3d0ddc90	0.034634173
121	0xbd82e034	-0.063904196
122	0x3d3b4559	0.045720432
123	0x3a3d2e9f	0.0007216725
124	0xbd1afdac	-0.037839577
125	0x3ce10a9d	0.027470881
126	0xbbdf9569	-0.006823231
127	0x3d863837	0.06553691

network.3.weight f4 [64, 128]
0	0xbc7ba90c	-0.015360128
1	0x3d027261	0.03184736
2	0xbdcf80f4	-0.10132018
3	0x3d8ca65f	0.0686767
4	0x3ba017c8	0.0048856474
5	0x3d273094	0.040817812
6	0xbd5da4f3	-0.054112386
7	0xbd4fee3a	-0.0507643
8	0x3d045c8f	0.032314833
9	0x3c446281	0.011986376
10	0xbdc19a0e	-0.09453212
11	0x3d83a576	0.064280435
12	0x3d3bb1a0	0.045823693
13	0x3d398495	0.045292456
14	0x3d69905e	0.057022445
15	0xba0d9872	-0.0005401439
16	0xbda83208	-0.08212668
17	0x3d89e345	0.06732801
18	0x3bb88282	0.005630792
19	0x3d118f78	0.035537213
20	0x3d846fa4	0.06466606
21	0xbdb7cb55	-0.089743294
22	0xbd6f080e	-0.05835729
23	0x3d552ae4	0.052042857
24	0xbb9f9bbc	-0.00487086
25	0x3cff46f2	0.031161759
26	0x3d90341e	0.070411906
27	0xbd93206a	-0.07183917
28	0xbd454418	-0.048160642
29	0xbcea824a	-0.02862658
30	0xbd52d06d	-0.0514683
31	0xbd8dc98c	-0.06923208
32	0xbc564803	-0.013078692
33	0xbd30356e	-0.043019705
34	0x3d3ee712	0.046607085
35	0x3d05033b	0.032473784
36	0x3c512139	0.012764269
37	0xbb372b9b	-0.0027949575
38	0x3ccf5f59	0.02531402
39	0x3da44a14	0.08021942
40	0x3cac753e	0.021052
41	0x3d8dbe29	0.06921036
42	0xbc8551a7	-0.016274286
43	0xbcfd98da	-0.030956674
44	0xbdc76328	-0.097357094
45	0x3d713c16	0.058895193
46	0x3a48eeeb	0.0007664996
47	0xbdae5662	-0.0851257
48	0xbd49c44e	-0.049259476
49	0x3d16dca9	0.03683153
50	0xbdb28ad1	-0.087178834
51	0xbcc6500e	-0.024208095
52	0xbd33687e	-0.043800823
53	0x3b1162ad	0.002218406
54	0x3c4b7a38	0.012419276
55	0xbcdb7c67	-0.026792718
56	0x3c8521cf	0.016251473
57	0x3c81eef4	0.015861012
58	0xbdba34ff	-0.090921395
59	0xbd42ea67	-0.047586825
60	0xbd47e570	-0.048802793
61	0x3d6a843b	0.05725501
62	0xbcda63f2	-0.026658986
63	0x3cd8e211	0.026474984
64	0xbd9ed610	-0.07755673
65	0xbd206573	-0.03915925
66	0x3bd164c5	0.0063901865
67	0xbd24631e	-0.040133588
68	0xbd3496b2	-0.044089027
69	0xbc3731af	-0.011181279
70	0x3d10a895	0.035317022
71	0xbc5915c5	-0.013249819
72	0xbcc0824c	-0.02349963
73	0xbd22b840	-0.039726496
74	0xbce6064b	-0.028079173
75	0x3d52cb22	0.051463254
76	0xbb57967f	-0.00328961
77	0xbdb0075c	-0.08595154
78	0x3c9215a3	0.017832583
79	0x3d4b306b	0.04960672
80	0x3ae51b3a	0.0017479428
81	0xbd7ed326	-0.062213086
82	0x3d276bfb	0.040874463
83	0xbcb57146	-0.02214874
84	0xbcd2c2dc	-0.025727682
85	0x3cef2eaf	0.029197065
86	0x3c9a7783	0.018855816
87	0x3d1aecfe	0.03782367
88	0x3d7296a0	0.05922568
89	0x3b6abc0d	0.0035817653
90	0xbd627cc3	-0.055294763
91	0x3d8e004e	0.06933652
92	0xbd2258ef	-0.039635595
93	0xbda38586	-0.07984452
94	0x3d08fe14	0.033445433
95	0xbc3a9f0c	-0.011390459
96	0xbc87ae6b	-0.016562661
97	0x3cb0c070	0.021576136
98	0xbc498ec5	-0.012302105
99	0x3dcf112a	0.10110696
100	0x3d8fd34c	0.070227236
101	0x3c4e08d6	0.012575349
102	0x3d78d306	0.060748123
103	0xbd540c3b	-0.051769476
104	0x3da5c202	0.08093645
105	0xbd4f96cf	-0.05068093
106	0x3cc5bff5	0.024139384
107	0x3d7d2037	0.0617983
108	0xbbbb4da7	-0.005716044
109	0x3ceef3dd	0.029169017
110	0x3b6711bf	0.003525838
111	0xbd15bbfa	-0.03655622
112	0xbda95ba8	-0.08269435
113	0xbd808100	-0.06274605
114	0xbd0bd394	-0.034137323
115	0xbd3b1e36	-0.04568311
116	0x3cbd6111	0.023117574
117	0xbd72872b	-0.059210937
118	0xbcd2d880	-0.025738
119	0x3c648a0c	0.013948929
120	0x3cafa5f2	0.021441434
121	0xbdad39f2	-0.08458318
122	0x3d9ba8c5	0.076005496
123	0x3dd24ce1	0.1026857
124	0xbd8917fd	-0.066940285
125	0xbd5c06a1	-0.05371726
126	0xbbfb2928	-0.0076648183
127	0xbe097aea	-0.13425794
128	0xbdc5df1d	-0.09661696
129	0xbd8c0ee7	-0.0683878
130	0x3d41dbae	0.047328644
131	0x3d1b91c6	0.037980817
132	0x3cdf3984	0.027249105
133	0xbc3111d6	-0.010807475
134	0xbd8b6569	-0.06806452
135	0x3c87698b	0.016529819
136	0xbdaef8a3	-0.085435174
137	0xbd29dd29	-0.04147068
138	0x3da3fd10	0.08007252
139	0xbd154fbe	-0.036453
140	0xbcae625d	-0.021287138
141	0x3c05f5be	0.008176265
142	0x3d6a5f54	0.05721982
143	0x3d5fcc6f	0.054638322
144	0xbe0062f6	-0.1253775
145	0x3d12e9ea	0.03586761
146	0xbcd2004c	-0.025634907
147	0xbd805f0c	-0.06268129
148	0x3c193f96	0.009353539
149	0xbb2d1cb3	-0.002641481
150	0x3d23e657	0.04001459
151	0x3da44ecc	0.08022842
152	0x3adc2baa	0.0016797681
153	0xbccf23f2	-0.025285695
154	0xbd5156c5	-0.05110814
155	0xbd9d26d4	-0.076734215
156	0xbd11f5c4	-0.03563477
157	0x3d8076f6	0.0627269
158	0x3b73bf88	0.003719302
159	0xbdadee5d	-0.0849273
160	0xbd7b92b6	-0.06141921
161	0x3d5e3116	0.05424603
162	0x3c882e1e	0.016623553
163	0xbd292a08	-0.04129985
164	0xbda28bd7	-0.079368286
165	0xbdb8a060	-0.09014964
166	0xbc3a6e9b	-0.011378909
167	0xbd371838	-0.04470083
168	0xbba69b74	-0.0050844494
169	0xbbfce573	-0.007717782
170	0xbd8fd563	-0.07023122
171	0x3bbf3a4d	0.0058358074
172	0x3c7cc031	0.015426681
173	0xbdbb3e6b	-0.09142765
174	0xbdb7178e	-0.089400396
175	0xbd8806ce	-0.06641923
176	0x3c401b6d	0.011725289
177	0x3d1c8750	0.03821498
178	0xbd7dcf3d	-0.061965216
179	0x3d8aafd2	0.06771816
180	0xbdb00259	-0.08594198
181	0x3d1bffcd	0.038085748
182	0xbd80e7a8	-0.06294185
183	0x3c8fa3cd	0.017534161
184	0xbe047be8	-0.12937891
185	0xbd9629d3	-0.07332196
186	0xbda16bc0	-0.0788188
187	0xbd81214b	-0.06305178
188	0x3c34dc9e	0.011038927
189	0xbd973fb4	-0.07385197
190	0x3d927465	0.07151107
191	0xbcf75afe	-0.030194756
192	0xbd5c987d	-0.05385636
193	0xbb95afa8	-0.004568059
194	0x3bab24e7	0.005222905
195	0x3d68f8e3	0.056877982
196	0x3c55f642	0.013059201
197	0xbd545070	-0.051834524
198	0xbc5a1918	-0.013311647
199	0xbbd8fbc8	-0.0066218115
200	0xbd9446cb	-0.07240065
201	0x3cf21287	0.02954985
202	0xbdbba419	-0.091621585
203	0xbd619136	-0.055070125
204	0xbd507918	-0.050896734
205	0xbd736700	-0.0594244
206	0xbd6839ec	-0.056695864
207	0x3bfc5e00	0.0077016354
208	0xbc34f7bc	-0.011045393
209	0x3d8a7f83	0.06762602
210	0xbd611143	-0.054948103
211	0xbd8e1798	-0.06938094
212	0xbd2ba339	-0.041903708
213	0x3d8a5881	0.06755162
214	0x3a6200d3	0.00086213386
215	0xbd8b6755	-0.068068184
216	0xbd1553ca	-0.03645686
217	0xbe04f6ab	-0.12984721
218	0x3c670326	0.014099872
219	0x3d2d11c7	0.042253282
220	0xbd8fba52	-0.0701796
221	0xbc7df8ea	-0.01550124
222	0xbd51fef2	-0.051268525
223	0x3cb0b4aa	0.021570522
224	0x3d1ff75f	0.03905427
225	0xbd97fa58	-0.07420796
226	0x3d3312bf	0.04371905
227	0xbd767623	-0.060171258
228	0x3da608cb	0.08107146
229	0x3da21d28	0.07915717
230	0xbd46c4de	-0.04852759
231	0x3ca8c0da	0.020599771
232	0x3cf5e0bc	0.030014388
233	0xbcc5c78b	-0.024143001
234	0xbd2d84d8	-0.042363018
235	0x3d069cf0	0.03286451
236	0xbdba25ca	-0.09089239
237	0x3c3e918b	0.01163138
238	0x3cc306dd	0.023806984
239	0x3d961fcb	0.07330283
240	0x3d7101aa	0.058839478
241	0x3dbb68fe	0.09150885
242	0x3d00ef2f	0.031478103
243	0xbd1171bf	-0.035508867
244	0x3d8eb791	0.06968606
245	0xbbd736cb	-0.006567811
246	0xbc0a1240	-0.008427203
247	0xbd903f05	-0.0704327
248	0xbd7d97a9	-0.061912213
249	0xbd840bac	-0.06447539
250	0xbda97182	-0.08273603
251	0xba735e42	-0.000928376
252	0xbd271571	-0.040791932
253	0xbdba19e8	-0.090869725
254	0xbc41247d	-0.011788485
255	0xbd266d37	-0.0406315

network.3.bias f4 [64]
0	0x3d469f52	0.048491783
1	0xbd2d5af9	-0.042323086
2	0xbd0593a8	-0.03261152
3	0x3c18bd2c	0.009322446
4	0x3d480782	0.048835285
5	0x3dda4bdd	0.10659001
6	0x3d06988b	0.03286032
7	0xbda6d07a	-0.081452325
8	0xbd8a9e21	-0.06768442
9	0xbdc7a071	-0.09747399
10	0x3cb0a6fe	0.021564003
11	0xbd8832fa	-0.06650348
12	0xbd96c1bf	-0.07361173
13	0xbc0a4d30	-0.0084412545
14	0xbc45b269	-0.012066462
15	0xbdbbb1ca	-0.0916477
16	0x3c3f0a7f	0.011660217
17	0x3d562c51	0.052288357
18	0xbc8260a9	-0.015915232
19	0x3c27bd6d	0.010238034
20	0x3d30ca8d	0.043161917
21	0x3ab49c83	0.0013779554
22	0x3d886e08	0.06661612
23	0x3d120902	0.03565312
24	0xbd93aed1	-0.07211078
25	0xbd79bb3d	-0.06096958
26	0xbd8878eb	-0.06663688
27	0xbb02ffc2	-0.001998887
28	0x3d512802	0.051063545
29	0xbd55586e	-0.052086286
30	0x3dcfd6ea	0.101484135
31	0x39f7f898	0.00047296728
32	0xbd22df99	-0.03976402
33	0xbcd055c5	-0.025431523
34	0x3d69972b	0.05702893
35	0x3dd57305	0.10422329
36	0xbd882352	-0.06647362
37	0xbd28dd25	-0.041226525
38	0xbd67a1bc	-0.056550726
39	0x3d052f00	0.032515526
40	0x3d195bee	0.037441187
41	0xbd90aff9	-0.07064814
42	0x3da92a00	0.08259964
43	0x3bbc157b	0.0057398654
44	0xbe0ea72c	-0.13930959
45	0x3d7aa20d	0.0611897
46	0x3da4ef36	0.08053438
47	0xbcdb1171	-0.026741715
48	0xbd64b304	-0.055834785
49	0xbdbe3a75	-0.092884935
50	0xbd858175	-0.065188326
51	0x3d99c492	0.07508196
52	0xbc009924	-0.007849012
53	0xbdf2c391	-0.118537076
54	0xbd9c9d26	-0.07647161
55	0x3c9891f3	0.018624282
56	0xbd486be1	-0.048931006
57	0xbd897c02	-0.06713106
58	0x3d4049a0	0.046945214
59	0x3cebc0ad	0.028778398
60	0xbcbd9c2b	-0.023145756
61	0xbd770ab3	-0.060312938
62	0x3d97bc7c	0.074089974
63	0xbdcc19d4	-0.09965864

network.6.weight f4 [32, 64]
0	0x3dad2064	0.08453444
1	0x3d682aa7	0.0566813
2	0xbd21ebd2	-0.039531536
3	0x3dbcc0b6	0.09216444
4	0xbbeb8935	-0.007187987
5	0xbc763f74	-0.015029777
6	0xbc26377a	-0.010145063
7	0xbc617fca	-0.013763377
8	0xbdb9bbd1	-0.09069026
9	0xbca3d081	-0.019996883
10	0x3aa04e4f	0.0012230369
11	0x3dfeb8f2	0.12437619
12	0x3b2863e0	0.0025694296
13	0x3d9e884b	0.077408396
14	0x3dc78fee	0.09744249
15	0x3de49d0c	0.11162767
16	0xbd85b992	-0.06529535
17	0xbdc3cde1	-0.09560753
18	0xbd283195	-0.04106291
19	0x3d3c854f	0.04602557
20	0xbd8e0886	-0.069352195
21	0xbd0e320d	-0.0347157
22	0xbdb9f0db	-0.09079143
23	0x3dc77730	0.0973953
24	0x3cea0645	0.028567443
25	0x3d999bff	0.07500457
26	0xbdb34c92	-0.08754839
27	0x3bf0454d	0.00733248
28	0x3cbf6267	0.023362352
29	0xbd8562df	-0.06512999
30	0xbcb15077	-0.021644814
31	0xbd94ee25	-0.07271985
32	0x3cb082e3	0.021546787
33	0xbd5a3d34	-0.053281024
34	0x3cf990e8	0.030464604
35	0xbd05f3d8	-0.03270325
36	0xbdbd6e42	-0.09249546
37	0x3dcbf7ac	0.09959349
38	0x3d87d0b9	0.066316076
39	0x3cf9e492	0.030504499
40	0x3d62d8ff	0.055382725
41	0x3c912620	0.017718375
42	0xbd55811f	-0.052125093
43	0x3dc454e9	0.09586508
44	0xbdb061f7	-0.08612435
45	0xbd3fbdf0	-0.046811998
46	0xbd5dd43e	-0.054157488
47	0x3ddbee45	0.10738806
48	0xbdbd51c6	-0.09244113
49	0xbd1b444b	-0.037906926
50	0x3d5c72ef	0.053820547
51	0xbdf2400d	-0.11828623
52	0xbe03e0d1	-0.1287873
53	0x3dc3cb4e	0.09560262
54	0xbcfc045e	-0.030763801
55	0x3d2a3ce9	0.041561995
56	0xbcd61bf4	-0.026136376
57	0xbc7d0fe1	-0.01544568
58	0xbcb4dfe8	-0.022079423
59	0x3d60af83	0.05485488
60	0xbc8a01ae	-0.016846504
61	0xbd0013f1	-0.031269018
62	0xbc10ad22	-0.008830341
63	0xbd305e8e	-0.043058924
64	0x3de1e4ad	0.110299446
65	0x3dc208be	0.09474324
66	0x3d8b8dfb	0.0681419
67	0x3a69f2a5	0.00089244015
68	0xbdc81053	-0.097687386
69	0xbde6491d	-0.11244414
70	0xbdfd8697	-0.123791866
71	0x3cdde472	0.02708647
72	0xbdd59145	-0.104280986
73	0x3da35774	0.07975665
74	0xbdb36d4e	-0.087610826
75	0xbd4b61c6	-0.04965379
76	0x3c9c5c22	0.019086901
77	0x3c9f3812	0.019435916
78	0x3da10690	0.0786258
79	0xbdc798c1	-0.09745932
80	0x3c104a91	0.0088068405
81	0x3c1ef1a4	0.009701166
82	0x3df4477a	0.119276956
83	0x3cfc756c	0.03081771
84	0x3db98147	0.09057861
85	0xbd053956	-0.032525383
86	0x3c72b935	0.014814665
87	0xbdd12682	-0.10212423
88	0xbdcd721b	-0.100315295
89	0x3d5f1987	0.054467704
90	0x3c6bb028	0.014385261
91	0xbdc7c77c	-0.097548455
92	0x3d40f22d	0.047105957
93	0x3db825e2	0.089916006
94	0xbd3e908b	-0.046524566
95	0x3dd7f029	0.10543854
96	0xbdd06edb	-0.10177394
97	0xbcc82e2a	-0.024436075
98	0x3e331f57	0.17492424
99	0xbd4b96c8	-0.049704343
100	0x3d03a291	0.032137457
101	0x3db42783	0.08796599
102	0xbdd8d7dd	-0.10588048
103	0x3d14c3b5	0.036319453
104	0x3dca7540	0.09885645
105	0xbcb4a84a	-0.022052903
106	0x3de1d461	0.11026836
107	0x3d800e4e	0.062527284
108	0xbd91c508	-0.07117659
109	0xbdbc817a	-0.09204383
110	0x3cf8c6f4	0.030368306
111	0x3dfa8fcb	0.122344576
112	0x3d461115	0.048356134
113	0x3d81b867	0.06334
114	0x3d645be7	0.055751707
115	0x3d8b8e82	0.068142906
116	0x3dc4c864	0.09608534
117	0xbde275ef	-0.1105765
118	0x3bb7a30e	0.0056041544
119	0xbda5ae71	-0.08089913
120	0x3cf3e782	0.029773477
121	0xbcbea45a	-0.023271728
122	0x3dbac3d4	0.091193825
123	0x3e0db913	0.13840131
124	0xbc41379e	-0.011793045
125	0xbdcc01b2	-0.09961261
126	0xbd99080f	-0.0747224
127	0x3d12b250	0.035814583
128	0xbd50edd4	-0.05100806
129	0xbc534fb2	-0.012897419
130	0x3c82b487	0.015955223
131	0x3d8ad828	0.0677951
132	0xbb944be9	-0.0045256508
133	0x3b8c5878	0.0042830072
134	0xbdc5f8c1	-0.09666587
135	0x3d340666	0.043951415
136	0x3c591985	0.013250713
137	0x3d93eb2b	0.07222589
138	0x3ca606ac	0.020266853
139	0x3db62c4a	0.08895166
140	0xbcc2fac6	-0.023801219
141	0x3dc1e2c9	0.09467084
142	0xbc24f73b	-0.01006871
143	0x3d0f2611	0.034948412
144	0x3d9b4441	0.07581378
145	0xbd6f2d30	-0.058392704
146	0xbe00630e	-0.12537786
147	0xbd72037a	-0.059085347
148	0xbdb93ec6	-0.09045176
149	0x3d2f64d9	0.042820785
150	0x3ded8149	0.11596925
151	0x3d9ed243	0.07754948
152	0x3c391ea3	0.011298808
153	0xbd31c1d6	-0.043397747
154	0xbdfed2bb	-0.124425374
155	0x3d5dabdf	0.054118987
156	0x3d3717e9	0.044700537
157	0x3da1419e	0.078738436
158	0x3db8a0c8	0.090150416
159	0xbdd3c7b0	-0.10340822
160	0x3dd4cca0	0.103905916
161	0xbcd52c22	-0.02602202
162	0xbdd106de	-0.10206388
163	0xbd81d511	-0.06339467
164	0xbdeecfe5	-0.116607465
165	0x3d0ff46e	0.035145216
166	0x3d85f4e6	0.06540851
167	0x3d29d077	0.041458573
168	0x3d0bcc3e	0.034130327
169	0xbd6613a9	-0.056171093
170	0xbcfba0ad	-0.030716265
171	0xbc796805	-0.015222554
172	0x3d103f23	0.035216462
173	0x3df45571	0.11930359
174	0xbc7b6274	-0.015343297
175	0x3ddc4167	0.10754662
176	0x3d13fc02	0.036129005
177	0xbd0c6ba0	-0.034282327
178	0x3d821ed8	0.06353539
179	0x3d28e5fa	0.041234948
180	0x3da1fa92	0.079091206
181	0x3e073bf1	0.1320646
182	0xbd78731a	-0.060656644
183	0xbd77af21	-0.06046975
184	0x3d791e1e	0.060819738
185	0xbc677eb7	-0.014129332
186	0x3da1f469	0.07907946
187	0x3cd49c46	0.025953423
188	0xbdc47c55	-0.09594027
189	0x3cb3b091	0.02193478
190	0x3dd4d6e4	0.1039255
191	0xbc5ac584	-0.013352755
192	0xbd538ab0	-0.051645935
193	0xbd948c92	-0.07253374
194	0xbd35db8c	-0.04439883
195	0x3cdb409c	0.026764207
196	0x3cc515ad	0.024058187
197	0x3dc2a43d	0.09503982
198	0xbd753406	-0.059864067
199	0x3cd506f8	0.0260043
200	0xbdc76b10	-0.097372174
201	0x3dc4d3dc	0.096107215
202	0x3d9667ba	0.07344003
203	0xbd819e60	-0.06329036
204	0x3c89bd00	0.016813755
205	0xb8f11d4d	-0.00011497233
206	0xbdcfb2a5	-0.101414956
207	0xbdfe5f46	-0.12420516
208	0xbd0cc802	-0.03437043
209	0x3dbd8eb9	0.09255738
210	0x3c0c47b9	0.008562022
211	0x3dbdb070	0.092621684
212	0x3dc4e6e6	0.09614353
213	0x3d25e52a	0.04050175
214	0x3d3554dc	0.04427038
215	0x3d9defb4	0.07711735
216	0xbdc4f303	-0.09616663
217	0xbd7ba1e7	-0.0614337
218	0x3cce70ed	0.025200332
219	0x3dfdd1a5	0.12393502
220	0xbd78f03c	-0.06077598
221	0x3b816144	0.0039483625
222	0x3dc34255	0.09534136
223	0x3cd6a36e	0.026200976
224	0x3d4e2709	0.050330196
225	0xbb5f2bae	-0.0034053135
226	0x3dc661d3	0.09686627
227	0x3db9e691	0.0907718
228	0xbdb6567d	-0.08903215
229	0x3d3af3cc	0.04564266
230	0xbda58eb1	-0.08083857
231	0x3ab7815f	0.0014000348
232	0xbd90faf4	-0.070791155
233	0x3b9c7837	0.004775073
234	0xbd8e9e25	-0.069637574
235	0x3d687746	0.056754373
236	0x3d099b11	0.03359515
237	0x3d3fa4d5	0.046788055
238	0xbdc8aed2	-0.09798969
239	0x3d0a7f23	0.033812653
240	0xbcfe65b6	-0.031054359
241	0xbc955437	-0.018228633
242	0x3ddbcc10	0.10732281
243	0xbceae47b	-0.028673401
244	0x3c9b8ae3	0.018987125
245	0x3da115e9	0.07865507
246	0xbdc1006c	-0.094239086
247	0xbc2817f5	-0.010259618
248	0x3dcb82dd	0.099370696
249	0x3d8121e2	0.06305291
250	0x3dfd72b3	0.12375393
251	0x3d319b68	0.043361098
252	0x3d889ab3	0.066701315
253	0x3d541c98	0.05178508
254	0x3d973748	0.07383591
255	0xbc66c059	-0.014083945

network.6.bias f4 [32]
0	0xbd0b74b2	-0.034046836
1	0x3e6ff947	0.23434936
2	0xbe7de735	-0.2479523
3	0x3e29fd62	0.16600564
4	0xbdda6e9c	-0.10665628
5	0x3e237c53	0.15965395
6	0xbda13ad2	-0.07872547
7	0xbd9b194d	-0.07573185
8	0xbcb4eebd	-0.022086496
9	0xbe869b8a	-0.26290542
10	0xbeaa042b	-0.33206305
11	0x3d1e8dad	0.03870933
12	0xbe258925	-0.16165598
13	0x3cf8d51a	0.030375052
14	0x3da4e576	0.08051579
15	0x3e78c3e5	0.24293478
16	0x3e2f247f	0.17103766
17	0x3e92898d	0.28620568
18	0x3e84a977	0.2591054
19	0xbea7ec42	-0.32797438
20	0x3dc0e663	0.09418943
21	0xbcde08ec	-0.027103864
22	0x3d71274f	0.05887538
23	0xbcd0d3bc	-0.025491588
24	0x3e3e8df3	0.18608837
25	0xbd9e78f4	-0.07737914
26	0x3d8373b5	0.06418554
27	0x3d5b458f	0.053533133
28	0x3cedf79e	0.029048737
29	0x3e29eb29	0.16593613
30	0xbdc2e357	-0.09516018
31	0xbcb15a92	-0.021649633

network.8.weight f4 [1, 32]
0	0x3df9e1a1	0.122012384
1	0x3ce3e2aa	0.027818043
2	0xbc11dd99	-0.008902931
3	0x3dff48bf	0.12465047
4	0xbd644ec7	-0.05573919
5	0x3d071cfa	0.03298662
6	0x3dce7438	0.10080761
7	0xbc0107b9	-0.007875376
8	0x3dcbb11e	0.09945892
9	0xbd59cb56	-0.053172432
10	0xbdcc7374	-0.099829584
11	0x3d4f805d	0.050659526
12	0xbc8fa9ca	-0.017537016
13	0xbc26769c	-0.010160115
14	0x3e01445c	0.12623733
15	0x3d397e4e	0.04528647
16	0x3caaa118	0.020828769
17	0x3d6a7a82	0.05724574
18	0x3c110883	0.008852127
19	0xbdff24db	-0.124582015
20	0x3de889ad	0.113543846
21	0x3e1c4533	0.15260772
22	0x3ded2391	0.115790494
23	0xbe1171ac	-0.14203519
24	0x3dde48c2	0.10853721
25	0xbcfa33de	-0.03054231
26	0x3cb9bad8	0.022672102
27	0xbdf6165c	-0.120159835
28	0x3d8b578c	0.068038076
29	0x3d43a5c7	0.04776552
30	0xbd3647d8	-0.04450211
31	0xbdf8099c	-0.12111208
