1_KORD_Self_Regression/best_model.pth (torch, 180919 bytes, 7 tensors)

network.0.weight f4 [128, 264]
0	0xbd2c6bc6	-0.04209497
1	0xbb54a21a	-0.0032445253
2	0x3cbf5d33	0.02335987
3	0xbd9ccde8	-0.07656461
4	0x3cec4a37	0.028843982
5	0xbd011c3a	-0.03152106
6	0xbc8e67a8	-0.017383412
7	0xbd8b0bf3	-0.067893885
8	0x3cb36f31	0.021903606
9	0xbb8c2f99	-0.004278135
10	0x3ba2ca89	0.0049679917
11	0xbda845c1	-0.082164295
12	0xbd7e7132	-0.06211967
13	0xbb892302	-0.0041850815
14	0x3c9fdeee	0.01951548
15	0x3bd39808	0.0064573325
16	0xbd78ba2b	-0.06072442
17	0xbd76899b	-0.060189825
18	0xbceb3aa8	-0.028714493
19	0xbd832930	-0.0640434
20	0xbd75152f	-0.059834655
21	0xb9d52098	-0.0004065081
22	0xbd6ff091	-0.05857903
23	0xbcacb2ca	-0.021081347
24	0xbd750d82	-0.059827335
25	0xbd296f38	-0.041365832
26	0xbc1a9bca	-0.009436557
27	0xbda7aa77	-0.081868105
28	0xbb90f34d	-0.004423535
29	0xbc0e8571	-0.008698807
30	0x39c0cfca	0.0003677591
31	0xbc92315d	-0.017845804
32	0xbd48460c	-0.048894927
33	0xbd86a03a	-0.065735295
34	0xbc51a797	-0.012796304
35	0xbda4134e	-0.080114946
36	0x3b44ce14	0.0030030059
37	0xbc9d250c	-0.019182704
38	0xbd837f2b	-0.0642074
39	0xbd910b4b	-0.07082232
40	0xbd7aae10	-0.061201155
41	0xbdc049f2	-0.09389104
42	0xbd5e5502	-0.05428029
43	0xbddd3663	-0.10801389
44	0x3b859626	0.004076737
45	0xbdde28ab	-0.108476005
46	0xbdd1235a	-0.10211821
47	0xbdb64739	-0.089003034
48	0xbd9837e7	-0.074325375
49	0xbddd4610	-0.10804379
50	0xbd9f17c2	-0.07768203
51	0x3c65cc29	0.014025726
52	0xbd496dd0	-0.04917699
53	0x3b09daed	0.002103503
54	0xbd65ef4c	-0.056136414
55	0xbdc431fa	-0.09579845
56	0xbdd08084	-0.101807624
57	0xbdb56aae	-0.08858238
58	0xbdc545be	-0.09632443
59	0xbd15bd7a	-0.036557652
60	0xbdb55b16	-0.08855264
61	0xbdea8cfa	-0.114526704
62	0xbd816c3e	-0.06319474
63	0xbc978d66	-0.018500041
64	0xbd313680	-0.043264866
65	0xbd968c52	-0.07350983
66	0xbdf03a1e	-0.11729835
67	0xbce9b1bd	-0.028527135
68	0xbdcb9e62	-0.099423185
69	0xbdf67694	-0.12034336
70	0xbd94f359	-0.072729774
71	0xbd682ef3	-0.0566854
72	0x3dae8a0f	0.08522426
73	0x3d5be58b	0.053685706
74	0xbc3ba26d	-0.0114523
75	0xbcb62f63	-0.022239393
76	0xbba33274	-0.0049803797
77	0x3c798aa4	0.015230808
78	0xbdd84fda	-0.105621055
79	0xbd39dae4	-0.045374766
80	0xbd241a52	-0.040064164
81	0xbc2b992a	-0.010473529
82	0xbd0bb625	-0.034109253
83	0xbcc00e62	-0.023444358
84	0x3bb278e8	0.005446542
85	0x3d332cfd	0.043744076
86	0xbd8ef8e6	-0.06981067
87	0xb960949b	-0.00021417665
88	0xbc04e784	-0.008111838
89	0xbd9598f4	-0.07304564
90	0xbcdeea08	-0.027211204
91	0xbda42354	-0.08014551
92	0xbccaddb2	-0.024763916
93	0xbc4ce8ed	-0.012506706
94	0x3bf21ab9	0.0073884395
95	0xbd4e4d0f	-0.050366458
96	0x3c1265e0	0.008935422
97	0xbc709b0c	-0.014685404
98	0x3d46c9e0	0.048532367
99	0xbc75d9b3	-0.015005517
100	0x3c7cd6c9	0.015432068
101	0xbd57632d	-0.052584816
102	0xbc1955a8	-0.009358801
103	0xbc8aa78c	-0.016925596
104	0xbb9c53e4	-0.0047707427
105	0x3d2def82	0.04246474
106	0xbd74ce72	-0.059767194
107	0xbd913183	-0.07089522
108	0x3c821e5c	0.015883617
109	0xbd43f89a	-0.047844507
110	0xbc2a9563	-0.010411593
111	0x3c7c3fe7	0.015396095
112	0x3cad18e9	0.021130042
113	0xbda89b08	-0.08232695
114	0xbd9d743c	-0.076881856
115	0xbd66f78a	-0.056388415
116	0xbd1e1987	-0.038598564
117	0xbd404a68	-0.04694596
118	0xbd7600fd	-0.060059536
119	0xbda85208	-0.08218771
120	0x3bf1a4bd	0.0073743747
121	0xbc99b9bb	-0.018765321
122	0xbd89497b	-0.067034684
123	0xbd56aab7	-0.0524089
124	0xbccae406	-0.024766933
125	0xbb213a17	-0.0024601275
126	0x3ca384b3	0.019960737
127	0xbd7524fd	-0.059849728
128	0xbcd92145	-0.026505122
129	0x3c985ba5	0.018598387
130	0x3a731074	0.0009272166
131	0xbd5dd05f	-0.054153796
132	0x3c86bb25	0.01644666
133	0x3d3faba3	0.046794545
134	0xbd8c955e	-0.06864427
135	0x3b9993f2	0.004686826
136	0xbd3a4d5a	-0.045483924
137	0xbd63e217	-0.055635538
138	0x3d09096b	0.033456247
139	0xbcd102c9	-0.025514023
140	0xbd57dd8f	-0.05270153
141	0xbadf7896	-0.0017049487
142	0x3d5e74b5	0.05431052
143	0xbc981f72	-0.018569682
144	0xbc9d7f0d	-0.019225622
145	0xbdc7cb07	-0.09755521
146	0xbdb96aae	-0.09053551
147	0xbcd4fde5	-0.025999973
148	0xbc29fb3c	-0.01037484
149	0xbdc1bb71	-0.0945958
150	0xbd81a41d	-0.0633013
151	0xbd7a45e5	-0.061101813
152	0xbddf4600	-0.10902023
153	0xbd55b8ff	-0.05217838
154	0xbdc3db8f	-0.09563362
155	0xbd6494d1	-0.055805985
156	0xbda1821a	-0.07886143
157	0xbd1d34e6	-0.038380526
158	0xbcb3b3fe	-0.021936413
159	0xbc4713c1	-0.012150706
160	0xbd8c5d82	-0.06853773
161	0x3b2d5a0d	0.002645138
162	0xbd8e7db3	-0.06957569
163	0xbd52ff0f	-0.051512774
164	0xbd92dfdf	-0.07171606
165	0xbde4237e	-0.11139582
166	0xbd88fd93	-0.066889904
167	0xbd5c4da5	-0.053784985
168	0xbd94f70a	-0.072736815
169	0x3d04e08b	0.032440703
170	0x3ba07a7d	0.0048974142
171	0xbc88f63f	-0.016718982
172	0xbd3ff19c	-0.046861276
173	0x3c83b066	0.016075324
174	0xbda0d15b	-0.078524314
175	0xbbfd664e	-0.007733143
176	0xbd1d0667	-0.038336184
177	0xbd9743f1	-0.07386006
178	0xbd74c898	-0.059761614
179	0xbd84401f	-0.06457543
180	0xbcd30f11	-0.02576402
181	0xbc556c9e	-0.013026385
182	0xbd9cec00	-0.07662201
183	0xbc824f76	-0.01590703
184	0xbbcf1e0e	-0.0063207215
185	0xbd118df3	-0.035535764
186	0xbd758926	-0.059945248
187	0xbd26eaa1	-0.040751103
188	0xbdaa0887	-0.08302408
189	0xbc003b98	-0.007826708
190	0xbdaabaf7	-0.08336442
191	0xbd4e85ec	-0.050420687
192	0xbcf33d60	-0.029692352
193	0xbcebcbb9	-0.028783666
194	0xbc95eee0	-0.018302381
195	0xbda4aeb0	-0.080411315
196	0xbb7cfa87	-0.0038601474
197	0xbd0ef812	-0.034904547
198	0xbbe4581e	-0.006968512
199	0xbd029ac3	-0.031885874
200	0xbd963f8f	-0.073363416
201	0xbc5ea29e	-0.013588576
202	0xbbe2da57	-0.006923001
203	0x3b57c2af	0.0032922437
204	0xbd86801c	-0.06567404
205	0xbb810292	-0.003937074
206	0xbd56f98d	-0.052484084
207	0xbdae9cc1	-0.08525992
208	0x3c8c63ab	0.01713737
209	0xbda24987	-0.079241805
210	0xbd3b1eda	-0.04568372
211	0xbd400dc3	-0.046888124
212	0x3c399583	0.01132715
213	0xbd28bc5c	-0.04119526
214	0x3c9459d1	0.018109234
215	0xbcf65f5f	-0.030074773
216	0x3cee75e2	0.029108945
217	0xbd15bcf6	-0.03655716
218	0xbd68022e	-0.056642704
219	0xbd941502	-0.072305694
220	0xbd80f2cf	-0.06296312
221	0x3cbbb2c1	0.022912385
222	0xbcb5b44c	-0.022180699
223	0x3b778df7	0.0037773827
224	0xbcbd53d2	-0.023111258
225	0xbd88379e	-0.06651233
226	0xba85372f	-0.0010163541
227	0x3c55a04d	0.013038707
228	0xbd84eac5	-0.06490091
229	0xbd688ca8	-0.056774765
230	0x3d0e585e	0.034752242
231	0xbc7677bf	-0.015043198
232	0xbd587a83	-0.05285121
233	0xbd271e9f	-0.040800687
234	0x3cb0d592	0.021586213
235	0x3d9762b7	0.07391875
236	0xbd041f98	-0.032256693
237	0xbcd1296e	-0.02553245
238	0xbc79bff7	-0.015243522
239	0xbd84329b	-0.06454965
240	0x3cadb0dc	0.021202497
241	0xbccc1e6a	-0.024916846
242	0xbd87c301	-0.06628991
243	0xbdaeed37	-0.08541339
244	0xbc089fbf	-0.008338868
245	0xbd3d21c6	-0.046174787
246	0xbda669c5	-0.08125643
247	0xbd4916f5	-0.04909416
248	0xbc8d4199	-0.017243193
249	0xbd99c452	-0.07508148
250	0x3d1f2073	0.038849305
251	0xbcb6179c	-0.022228055
252	0xbb4dafb4	-0.0031385245
253	0xbc0342e8	-0.008011557
254	0xbddf4339	-0.109014936
255	0xbd49b34a	-0.04924325

network.0.bias f4 [128]
0	0xbd93ae68	-0.07211
1	0xbd684972	-0.056710668
2	0xbca4af09	-0.020102995
3	0xbba82cab	-0.005132278
4	0x3c705e3a	0.014670903
5	0x3cef0680	0.029177904
6	0x3c0e4f7c	0.008685943
7	0xbd8112bc	-0.063024014
8	0x3c590768	0.013246395
9	0xbda443da	-0.08020754
10	0x3bdcd9e7	0.006739843
11	0x3c8b569d	0.017009074
12	0xbb1b52e9	-0.0023700541
13	0x3d02d1dd	0.031938422
14	0xbbc1c90a	-0.0059138583
15	0x3bc8f9d4	0.0061332975
16	0xbcba63cd	-0.022752667
17	0xbdaa22f0	-0.08307445
18	0x3a5b74f9	0.00083716173
19	0xbd44541e	-0.047931783
20	0xbd43357e	-0.047658436
21	0x3b6a6f35	0.003577185
22	0x3c9331cd	0.017968083
23	0xbd792cc1	-0.060833696
24	0xbd194b33	-0.03742523
25	0xbd260140	-0.040528536
26	0xbd30aeec	-0.04313557
27	0xbd83d39a	-0.06436844
28	0x3cf6351b	0.03005462
29	0xb9472a69	-0.00018993918
30	0xbcd40128	-0.025879458
31	0x3bee76e3	0.007277356
32	0x3c420840	0.011842787
33	0xbd948de6	-0.072536275
34	0x3d3ba54c	0.045811936
35	0x3cf15610	0.029459983
36	0xbd54cb91	-0.05195195
37	0xbcacb404	-0.021081932
38	0x3cae7e20	0.021300375
39	0xbd9d3e10	-0.07677853
40	0xbd002ac2	-0.031290777
41	0xbd906112	-0.07049765
42	0xbc843736	-0.016139608
43	0x3d0b5ee3	0.034026038
44	0xbd793014	-0.060836866
45	0xbd76e983	-0.060281288
46	0xbd1021c6	-0.03518846
47	0x3cbc898d	0.023014808
48	0xbc737298	-0.014858864
49	0x3b60d530	0.0034306757
50	0xbdda2d62	-0.10653187
51	0x3cb35ee5	0.021895835
52	0x3c368c19	0.0111418
53	0x3ce8007c	0.028320543
54	0xbd88693f	-0.06660699
55	0xbd884e52	-0.066555634
56	0x3c8e8fab	0.01740249
57	0x3ceb54b8	0.02872692
58	0x3d14049b	0.036137205
59	0xbd442f6b	-0.047896784
60	0xbd34ba25	-0.044122834
61	0x3aee4e20	0.0018181242
62	0xbd0d956a	-0.03456632
63	0x3ce47cf8	0.027891621
64	0xbd8cbf7a	-0.06872459
65	0xbd22908a	-0.039688624
66	0xbd460dab	-0.04835288
67	0xbdfaf510	-0.12253773
68	0x3d859acd	0.065236665
69	0x3d5cbb7a	0.05388973
70	0x3cf109fa	0.029423703
71	0x3cc3ca2b	0.023900112
72	0x3c40b2b4	0.011761356
73	0xbd8f8ef5	-0.07009689
74	0xbcfb115f	-0.030647932
75	0x3d28df73	0.041228723
76	0x3d24195c	0.040063247
77	0x3b9fd978	0.004878219
78	0xbd3e1c8c	-0.046413943
79	0xbdc0b5c2	-0.094096676
80	0x3ca2cfa3	0.0198744
81	0xbd3c7378	-0.046008557
82	0x3d7aeb0e	0.061259322
83	0x3cef3f42	0.029204968
84	0xbab2b977	-0.0013635595
85	0xbb979224	-0.0046255756
86	0x3ce93210	0.028466254
87	0xbc993117	-0.018700166
88	0xbd60438b	-0.054751914
89	0xbd35c1eb	-0.044374388
90	0x3cdb7f8c	0.026794218
91	0xbcbedd17	-0.023298783
92	0xbcff21fa	-0.031144131
93	0xbd34988f	-0.044090804
94	0xbd327cfb	-0.043576222
95	0xbd39ac59	-0.04533038
96	0xbdb2c106	-0.087282225
97	0xbc9fa97d	-0.019489998
98	0x3cdd6726	0.027026724
99	0x3c3f19f6	0.011663904
100	0xbcb276cc	-0.021785162
101	0xbb6835a5	-0.0035432365
102	0x3ca28450	0.019838482
103	0xbd121495	-0.03566416
104	0x3bd027b3	0.0063523888
105	0xbd495e6b	-0.04916231
106	0xbb3c92b6	-0.002877397
107	0xbd638eff	-0.055556294
108	0x3cd097b7	0.025462968
109	0xbcbbad4e	-0.022909787
110	0x3cf8fd03	0.030394083
111	0x3cbc87ea	0.023014028
112	0x3c3e620d	0.011620057
113	0xbc7c711d	-0.015407828
114	0x3ba42bc3	0.0050100996
115	0xbc3973b5	-0.011319091
116	0xbcbe8e6f	-0.023261277
117	0x3cb51bb5	0.022107938
118	0xbcb65050	-0.022255093
119	0xbba12afe	-0.004918455
120	0xbd83ba02	-0.064319625
121	0x3d0aa15e	0.033845298
122	0x3c59df74	0.013297904
123	0xbc0d41fa	-0.008621687
124	0x3ad753e1	0.0016428196
125	0x3ccf761c	0.025324874
126	0xbd483426	-0.048877858
127	0x3d1070e6	0.03526392

network.3.weight f4 [64, 128]
0	0xbd055267	-0.032549288
1	0x3d96ba48	0.07359749
2	0xbd2e5ce3	-0.042569052
3	0xbdc4f7c3	-0.09617569
4	0xbd000234	-0.0312521
5	0x3d376a7a	0.04477928
6	0xbdbc7ab3	-0.092030905
7	0x3deba755	0.115065254
8	0xbd7776ec	-0.060416147
9	0x3d5da34b	0.054110806
10	0x3ccf7cf7	0.025328143
11	0xbdab2ea1	-0.08358503
12	0x3d829299	0.063756175
13	0xbdbcc72d	-0.09217677
14	0xbd5f27b5	-0.054481227
15	0x3cfe0ba8	0.031011418
16	0x3d826927	0.063677125
17	0x3d4fd3ca	0.050739087
18	0xbc1d3ab8	-0.009596519
19	0xbd0c588e	-0.03426414
20	0xbd5dd038	-0.05415365
21	0xbd16bf63	-0.036803614
22	0xbda73372	-0.08164109
23	0xbcfcb9d7	-0.030850334
24	0xbcf007eb	-0.02930065
25	0xbc6115a1	-0.013738067
26	0xbd241fd7	-0.040069427
27	0xbc8d8df5	-0.017279604
28	0xbd3c6b59	-0.046000812
29	0x3ce2f6cb	0.02770557
30	0xbcbb5b8d	-0.022870803
31	0xbbb385e4	-0.0054786075
32	0x3dac1c26	0.084038064
33	0x3b8f7efe	0.0043791523
34	0xbe8ede6f	-0.27904078
35	0xbca1f131	-0.01976833
36	0xbdc00a2c	-0.0937694
37	0x3d7144e2	0.058903582
38	0x3d8daa60	0.06917262
39	0x3bf94e19	0.007608187
40	0xbd86c200	-0.06579971
41	0xbd962849	-0.073319025
42	0x3ce6b8bf	0.028164266
43	0x3d3d04ab	0.04614703
44	0x3d74a56c	0.05972807
45	0xbcb3a63c	-0.021929853
46	0xbc8cfc7e	-0.017210241
47	0x3cc449a8	0.023960903
48	0x3d70b6d0	0.058768094
49	0x3cc335ab	0.023829302
50	0x3d8f9384	0.07010558
51	0x3d82036c	0.06348309
52	0x3c6ff0b3	0.0146447895
53	0xbd414aec	-0.04719059
54	0xba23ce7b	-0.00062487245
55	0x3d64f565	0.05589809
56	0x3cc641d9	0.02420132
57	0x3c48504b	0.012226175
58	0xbd93c25a	-0.07214804
59	0xbc022e54	-0.007945616
60	0xbdb1fca5	-0.08690766
61	0xbd7d4967	-0.06183758
62	0xbdc1db8a	-0.09465702
63	0x3d931fc3	0.071837924
64	0xbd17b9d9	-0.037042473
65	0xbcba892e	-0.02277049
66	0x3cf6e826	0.030139994
67	0xbd9322ab	-0.07184347
68	0xbde5ec3f	-0.11226701
69	0xbd4b51bc	-0.049638495
70	0xbd629ba6	-0.05532422
71	0x3cc98c5e	0.024603065
72	0xbd968b79	-0.07350821
73	0xbd0e9ca0	-0.034817338
74	0xbd3dd48e	-0.046345286
75	0xbca0cbcf	-0.019628434
76	0xbca26283	-0.019822365
77	0x3d71e2cd	0.059054185
78	0xbdbfdf44	-0.093687564
79	0x3d8b06db	0.06788417
80	0x3d2c3b6e	0.042048864
81	0x3c6a88e4	0.014314864
82	0xbd966ef9	-0.07345385
83	0x3d46e81c	0.0485612
84	0x3d61d50e	0.055134825
85	0x3cded375	0.02720044
86	0xbdab79bf	-0.083728306
87	0xb90340f6	-0.00012517333
88	0x3d23cd9e	0.039991014
89	0xbd809232	-0.062778845
90	0xbd1c7266	-0.038195036
91	0xbdb2b002	-0.08724977
92	0xbda3e119	-0.08001918
93	0xbd345123	-0.04402269
94	0xbd90c6eb	-0.070691906
95	0xbcd01fc5	-0.025405774
96	0xbc963dd9	-0.018340038
97	0x3c15f8f1	0.009153591
98	0x3cd02b02	0.025411133
99	0x3d426c50	0.047466576
100	0xba9f3be6	-0.0012148588
101	0xbc90849a	-0.017641354
102	0x3d171cd3	0.036892723
103	0x3bbdf142	0.0057965824
104	0x3cd08730	0.025455087
105	0x3d9cb1d1	0.07651103
106	0xbdbb3f12	-0.09142889
107	0x3d34c13d	0.0441296
108	0x3d548e5c	0.051893577
109	0xbd8ae2f5	-0.0678157
110	0xbba490d0	-0.005022146
111	0x3d5f8c01	0.054576878
112	0x3d16f9b3	0.036859225
113	0x3d402a51	0.046915356
114	0xbd5652df	-0.052325126
115	0xbd86fd56	-0.06591289
116	0xbad32e6c	-0.0016111857
117	0xbcf7c5b2	-0.030245636
118	0xbd592608	-0.053014785
119	0x3d2fe01d	0.04293834
120	0xbd6808c5	-0.05664899
121	0x3d33bc68	0.04388085
122	0xbd2600fc	-0.040528283
123	0xbd157966	-0.036492728
124	0x3d742022	0.059600957
125	0x3c9c380f	0.0190697
126	0xbabdb185	-0.0014472461
127	0xbd962033	-0.0733036
128	0x3d2fd4f9	0.042927716
129	0xbd0a21e0	-0.033723712
130	0xbbc84288	-0.006111447
131	0xbd42e6e5	-0.04758348
132	0xbd81ec6d	-0.06343923
133	0xbd90c5aa	-0.070689514
134	0x3c3fcce5	0.0117065655
135	0xbd436fd5	-0.047714073
136	0x3d57b9e9	0.052667532
137	0xbc9078b0	-0.017635673
138	0xbbcdf33f	-0.0062851007
139	0x3d273992	0.040826388
140	0x3da18a05	0.07887653
141	0xbdafffd8	-0.0859372
142	0xbde18635	-0.11011926
143	0xbc8e1e04	-0.017348297
144	0x3d4e44d1	0.050358597
145	0x3d5bdbfe	0.053676598
146	0x3d11b46d	0.035572458
147	0xbd21671a	-0.039404966
148	0x3d34c8c8	0.044136792
149	0x3cdb5776	0.026775103
150	0x3d6c7400	0.057727814
151	0xbd370256	-0.044679962
152	0xbd75a17b	-0.059968453
153	0x3b867d33	0.0041042804
154	0x3c84d30c	0.016213916
155	0x3a66814e	0.00087930716
156	0x3d836623	0.064159654
157	0x3d71a487	0.058994796
158	0x3d069911	0.03286082
159	0x3d38a83b	0.045082312
160	0xbca8e0c0	-0.020614982
161	0x3da13af7	0.07872575
162	0xbe210d83	-0.1572781
163	0x3d1424db	0.03616796
164	0xbcf25fe9	-0.02958675
165	0xbcc8138c	-0.024423383
166	0xb7fe7d40	-3.0337484e-05
167	0xbda236de	-0.07920621
168	0x3b0d44f6	0.0021555996
169	0x3d552bb1	0.05204362
170	0xbbc22902	-0.0059252987
171	0xbd03c632	-0.032171436
172	0xbdb2eb42	-0.08736278
173	0xbbf97b5a	-0.0076135816
174	0xbd383ab7	-0.04497787
175	0xbcc3c32b	-0.023896774
176	0x3c3c73ed	0.011502248
177	0x3d2f8009	0.042846713
178	0xbd5f9d98	-0.054593652
179	0x3d64d622	0.055868275
180	0xbd4294fb	-0.04750536
181	0xbdda1380	-0.106482506
182	0xbd8cd923	-0.06877353
183	0xbb02250f	-0.0019858514
184	0x3d96ce2d	0.07363544
185	0xbd334ee4	-0.043776408
186	0x3c3a02c5	0.011353199
187	0xbcf2894f	-0.02960649
188	0x3cd94f63	0.026527112
189	0xbcdfdcec	-0.027327023
190	0x3d12e57d	0.03586339
191	0xbdabb18a	-0.08383472
192	0xbdc99504	-0.098428756
193	0xbde6ed03	-0.11275675
194	0xbc01dca9	-0.007926145
195	0x3cf8a3bf	0.030351518
196	0xbc086a9f	-0.008326202
197	0xbebb5789	-0.36590222
198	0x3b6e9bc4	0.0036408762
199	0x3d864c62	0.065575376
200	0x3d37cfe7	0.044876006
201	0xbcedf674	-0.029048182
202	0x3defab26	0.11702566
203	0x3d5276ac	0.051382706
204	0xbd7c0252	-0.06152565
205	0x3da1fc63	0.07909467
206	0xbd7538f3	-0.059868764
207	0xbd9b2efd	-0.07577322
208	0x3d644f14	0.055739477
209	0xbd76b924	-0.060235158
210	0x3c216208	0.009850033
211	0x3da12f3d	0.07870338
212	0x3d32dd6d	0.0436682
213	0xbd340c2e	-0.043956928
214	0xbb2bf376	-0.0026237643
215	0x3d530fd4	0.051528767
216	0xbd93d9ea	-0.07219298
217	0xbb00aee7	-0.00196355
218	0x3cc3e582	0.023913149
219	0xbd92266f	-0.07136237
220	0x3d9de6df	0.07710051
221	0xbcce3389	-0.025171058
222	0x3d3a1b22	0.045436032
223	0x3d5adb04	0.053431526
224	0x3c5f92fa	0.013645882
225	0xbc03312f	-0.008007332
226	0xbbe8ddda	-0.007106525
227	0x3d1504ed	0.03638165
228	0x3d6c95bd	0.05775999
229	0xbd179422	-0.037006505
230	0xbdc83e32	-0.09777488
231	0x3ca42678	0.020037875
232	0x3d3fc35c	0.04681717
233	0xbd104dfd	-0.035230625
234	0x3b586093	0.0033016547
235	0x3cfcc835	0.030857185
236	0x3d2f8ee7	0.04286089
237	0x3c011241	0.007877887
238	0x3c25b58f	0.010114088
239	0xbdb23bc4	-0.08702806
240	0x3bf32642	0.007420332
241	0x3c0dd09e	0.008655695
242	0x3d4c77e0	0.04991901
243	0xbd0f4ecd	-0.03498726
244	0xbcd12654	-0.025530972
245	0x3cffa16e	0.031204905
246	0x3d61f24e	0.05516272
247	0x3d090440	0.03345132
248	0xbd819423	-0.06327083
249	0xbb467d9e	-0.0030287276
250	0xbe06158e	-0.1309416
251	0x3d6e2377	0.05813929
252	0xbd1a4aff	-0.037669178
253	0xbd967e03	-0.073482536
254	0xbdc2c298	-0.09509772
255	0x3a60fef6	0.0008582914

network.3.bias f4 [64]
0	0x3ec8b247	0.39198515
1	0x3e9c0088	0.30469155
2	0x3e1f7634	0.15572435
3	0xbe08a15c	-0.13342804
4	0xbde228b4	-0.1104292
5	0x3ed26867	0.41095278
6	0x3f6fe438	0.9370761
7	0xbe007571	-0.125448
8	0x3f2ba75c	0.67052245
9	0x3f1e3f6a	0.6181551
10	0xbe567e4e	-0.20946619
11	0x3efe6f04	0.49694073
12	0x3f13f8ff	0.5780181
13	0x3f264c8e	0.64960563
14	0x3e8076b1	0.25090554
15	0xbd68c1dc	-0.056825504
16	0xbd8c17df	-0.068404905
17	0x3f56024f	0.8359727
18	0xbe08e850	-0.1336987
19	0x3f8a949c	1.0826602
20	0x3f3e5d43	0.74361056
21	0x3e77c259	0.24195231
22	0x3ebc6324	0.36794388
23	0x3e69abc8	0.22819436
24	0x3faebc73	1.365126
25	0xbe6f8fe8	-0.2339474
26	0xbe50002d	-0.20312567
27	0x3ec75f3f	0.38939855
28	0xbd62aaaf	-0.055338558
29	0xbd7f43d8	-0.06232056
30	0x3ec30926	0.38092917
31	0x3e75d97d	0.24008746
32	0x3eccad65	0.3997604
33	0x3e6d5295	0.23176034
34	0xbccbec82	-0.02489305
35	0x3ecb12fd	0.39662924
36	0x3f0aa8f5	0.5416406
37	0x3f5918c7	0.8480343
38	0x3e0cab9b	0.13737337
39	0xbd8725ca	-0.065990046
40	0x3c04464a	0.008073399
41	0x3e9f8dd7	0.31162903
42	0xbe959dcd	-0.29221955
43	0xbd803c8c	-0.062615484
44	0x3f0078c8	0.501843
45	0x3f1598b7	0.5843615
46	0x3f4eefd6	0.8083471
47	0x3f0083e0	0.50201225
48	0x3f5979b9	0.8495136
49	0x3f5c1f40	0.85985184
50	0x3f82065c	1.0158191
51	0x3f94dbc5	1.1629568
52	0x3e9c1ad2	0.30489212
53	0x3eca22ff	0.39479825
54	0x3f4dddf0	0.80416775
55	0xbdd09192	-0.10184015
56	0x3f299fda	0.6625954
57	0x3f6e526c	0.93094516
58	0xbde816fa	-0.113325074
59	0x3db8b7d6	0.09019439
60	0xbd802bcd	-0.06258354
61	0x3eee003b	0.4648455
62	0xbce1b958	-0.0275542
63	0x3f552701	0.8326264

network.6.weight f4 [32, 64]
0	0x3da9d7e5	0.08293132
1	0xbc448eff	-0.011996984
2	0xbd649a71	-0.05581135
3	0xbdcf5e8f	-0.101254575
4	0x3dfe9ed8	0.12432641
5	0xbc6b0d70	-0.0143464655
6	0xbe182211	-0.14856745
7	0x3da4b730	0.08042753
8	0x3d243751	0.040091816
9	0x3ce3cdb6	0.027808052
10	0x3d8aefdb	0.0678403
11	0xbe1b7208	-0.15180218
12	0xbd612fd6	-0.05497726
13	0x3e32435e	0.17408511
14	0x3d9cd56b	0.07657894
15	0x3d28f3a6	0.041247986
16	0xbdde3192	-0.108492985
17	0xbdc3fa8e	-0.09569274
18	0xbca7d19e	-0.020485695
19	0x3cc96217	0.024582906
20	0xbda25f26	-0.079283044
21	0xbd5135ac	-0.051076576
22	0x3d0d5ceb	0.03451244
23	0xbd128743	-0.035773527
24	0x3ce0312f	0.027367203
25	0x3dc5676d	0.096388675
26	0x3d89066b	0.06690677
27	0x3c0e46cb	0.008683871
28	0xbd42de44	-0.04757525
29	0xbd661764	-0.05617465
30	0x3e213012	0.15740994
31	0x3d6e1cf1	0.05813307
32	0xbca283af	-0.019838182
33	0xbb73c6b4	-0.0037197294
34	0xbd82f7ba	-0.06394906
35	0x3c33b7a1	0.0109690735
36	0xbc729198	-0.01480522
37	0xbc54596e	-0.012960775
38	0xbcc463e3	-0.023973411
39	0xbdf671d9	-0.120334335
40	0xbdb54c4f	-0.08852445
41	0xbea4ffed	-0.32226506
42	0x3ca372a3	0.019952124
43	0x3d7459f2	0.05965609
44	0xbe708f5c	-0.23492187
45	0x3e978850	0.29596186
46	0xbd897525	-0.06711797
47	0xbc608e87	-0.013705856
48	0xbcbdb77a	-0.023158778
49	0x3bbcf1c0	0.0057661235
50	0x3e0b8183	0.13623624
51	0xbde9e6be	-0.11420964
52	0x3da015a9	0.07816631
53	0xbcfe03de	-0.031007703
54	0x3d5c625d	0.053804744
55	0xbd3ace8b	-0.04560713
56	0x3e1659fc	0.14682764
57	0xbd2e84f7	-0.042607274
58	0xbdc29cb2	-0.095025435
59	0xbd61633c	-0.055026278
60	0xbc1ffce8	-0.009764887
61	0x3d9ac602	0.07557298
62	0xbe0d95dc	-0.13826698
63	0x3c4ab76c	0.012372833
64	0x3e55fe2a	0.20897737
65	0x3dcd1e48	0.10015541
66	0x3d60ce9f	0.05488455
67	0xbddec036	-0.10876505
68	0x3d999e7c	0.075009316
69	0xbdf039dd	-0.117297865
70	0xbe3d3dee	-0.18480656
71	0xba1c05de	-0.0005951802
72	0x3db2e294	0.087346226
73	0x3d0ee22d	0.034883667
74	0x3e039578	0.12849987
75	0xbe24d5c0	-0.16097164
76	0xbe006d13	-0.12541609
77	0x3ce67ec6	0.028136622
78	0xbe0f766d	-0.1401002
79	0x3d864b47	0.06557327
80	0xbccc5fff	-0.024948118
81	0xbe067251	-0.13129546
82	0x3d095871	0.03353161
83	0x3d9e4259	0.077274986
84	0x3dd13fe9	0.10217268
85	0x3d85e516	0.06537835
86	0x3e1f8e05	0.1558152
87	0xbddbfe16	-0.107418224
88	0xbc924957	-0.017857237
89	0xbc268de6	-0.010165667
90	0xbd835095	-0.06411854
91	0xbdbf7fe4	-0.09350565
92	0xbdac1cdf	-0.08403944
93	0x3c864173	0.01638863
94	0xbe2866f7	-0.16445528
95	0xbdb4402d	-0.08801303
96	0xbdaa998c	-0.08330068
97	0xbe14620c	-0.14490527
98	0xbdcfc261	-0.10144497
99	0x3d620641	0.055181745
100	0xbced89b1	-0.02899632
101	0xbd058455	-0.032596905
102	0x3ca0f7d3	0.019649422
103	0xbdaa90cc	-0.08328399
104	0xbd4c0aaa	-0.049814858
105	0xbdd61fbe	-0.10455273
106	0xbda13f7e	-0.07873438
107	0xbd9c3ff1	-0.07629383
108	0xbcda3262	-0.026635353
109	0x3c33cd2b	0.010974209
110	0xbc86a2c2	-0.01643503
111	0x3da146b4	0.07874814
112	0x3d0f7c07	0.03503039
113	0xbdcf564f	-0.10123884
114	0xbd2ac56d	-0.041692186
115	0xbdb669d8	-0.08906907
116	0x3cf6defc	0.030135624
117	0x3cc51434	0.024057485
118	0x3d1cdc3f	0.03829598
119	0xbdd22f0c	-0.1026288
120	0xbe42a4f1	-0.19008233
121	0xbdb28da2	-0.087184206
122	0x3dab4dc0	0.08364439
123	0x3d6252b9	0.05525467
124	0x3d23fef3	0.04003806
125	0x3d799a0a	0.06093792
126	0xbcba91ef	-0.022774665
127	0x3d23eb8b	0.040019553
128	0x3d546441	0.051853422
129	0xbc02e5e8	-0.007989384
130	0x3decc922	0.115618005
131	0x3d41363a	0.047170855
132	0xbd0a2afd	-0.033732403
133	0xbd44f676	-0.048086606
134	0xbd9e396a	-0.077257946
135	0xbcb18d23	-0.021673745
136	0xbe29a515	-0.1656688
137	0xbd584fdf	-0.052810546
138	0x3de97d30	0.11400831
139	0xbdcd4c3f	-0.100243084
140	0xbdcb8ad2	-0.09938587
141	0xbdb03c6b	-0.08605274
142	0x3b2649bd	0.0025373541
143	0xbde8ef99	-0.113738246
144	0x3dd4fc70	0.10399711
145	0x3c4e854b	0.012605022
146	0xbdbd7419	-0.092506595
147	0x3d63e94a	0.055642404
148	0xbd8d7ae0	-0.06908202
149	0x3d927d90	0.071528554
150	0x3df53ffd	0.119750954
151	0xbdd63718	-0.10459727
152	0x3dadb34c	0.08481464
153	0x3dae6df0	0.08517063
154	0x3d74579f	0.059653874
155	0x3e0b6f5d	0.136167
156	0xbd71996f	-0.058984216
157	0x3d0e71c7	0.034776475
158	0xbdcb6101	-0.099306114
159	0xbdac3c61	-0.08409954
160	0xbd8f5495	-0.069985546
161	0xbdb0b2db	-0.08627864
162	0x3d7db55d	0.06194054
163	0xbcc3a83c	-0.023883931
164	0xbd8a2dac	-0.067469925
165	0xbcc4d3f1	-0.024026843
166	0xbdead867	-0.11467057
167	0x3dcf0564	0.1010845
168	0xbd20d2fc	-0.03926371
169	0x3bd44aff	0.006478667
170	0x3dd516d2	0.10404743
171	0xbe113fe1	-0.14184524
172	0xbd17656e	-0.036961965
173	0xbc59ac40	-0.0132856965
174	0xbe1a7058	-0.15081918
175	0xbdc54335	-0.09631959
176	0xbe033776	-0.12814125
177	0xbde84c70	-0.11342704
178	0x3d155484	0.036457554
179	0x3d8badec	0.06820282
180	0xbd1d4037	-0.03839132
181	0xbe5e53ab	-0.21711604
182	0xbd7438d4	-0.059624508
183	0x3c4b4d2c	0.012408536
184	0x3b40bf77	0.0029410997
185	0xbd86f4fe	-0.06589697
186	0xbd5147fa	-0.051094033
187	0xbd3dd5c0	-0.046346426
188	0xbdfc011d	-0.123049
189	0x3adfa722	0.0017063359
190	0x3d28c4dd	0.04120337
191	0xbd8e9097	-0.06961172
192	0xbd9cb2f3	-0.07651319
193	0xbd9a835c	-0.07544586
194	0xbcef0327	-0.029176308
195	0xbd8f26f2	-0.0698985
196	0x3d59d8ba	0.053185202
197	0x3d9180b3	0.071046256
198	0xbe24db58	-0.16099298
199	0x3d0ae5e6	0.033910654
200	0xbd15cc69	-0.036571894
201	0xbcee02c2	-0.02905405
202	0xbe4d5080	-0.2005024
203	0xbe346ab4	-0.17618829
204	0x3da4ab81	0.08040524
205	0x3d999a81	0.075001724
206	0xbe02e7a6	-0.1278368
207	0x3d9d3bbe	0.076774105
208	0x3d7c8315	0.061648447
209	0xbce38807	-0.027774824
210	0x3cbe0864	0.02319736
211	0xbe0aab0f	-0.13541816
212	0xbd080b7e	-0.033214085
213	0xbc7ce2d8	-0.015434943
214	0x3d33a272	0.04385609
215	0xbc73045b	-0.014832581
216	0x3e193b67	0.14964066
217	0xbd367165	-0.044541735
218	0xbcd9b087	-0.026573433
219	0x3dca9536	0.09891741
220	0x3dc3c9bd	0.09559963
221	0xbdcfed0c	-0.10152635
222	0xbe235c9c	-0.15953296
223	0x3d95a688	0.07307154
224	0xbc909d5f	-0.017653165
225	0xbaeabfcd	-0.0017909944
226	0x3cc39508	0.023874775
227	0xbd9064d1	-0.07050479
228	0xbe0007b3	-0.12502937
229	0x3d74deff	0.05978298
230	0xbc695787	-0.01424206
231	0xbd96cdcc	-0.073634714
232	0x3dd416ba	0.10355897
233	0xbd948e3d	-0.07253692
234	0xbd94a499	-0.07257957
235	0xbe354e74	-0.17705709
236	0xbdd7ac9b	-0.10530969
237	0x3db9d7f1	0.09074391
238	0x3e154f4c	0.1458103
239	0x3dd4f89f	0.10398983
240	0xbe0ace0c	-0.13555163
241	0xbd075647	-0.033041265
242	0xbde384cd	-0.11109314
243	0xbd814c1e	-0.06313346
244	0x3bec02ce	0.007202483
245	0xbd8f9f51	-0.07012809
246	0xbdad306c	-0.08456501
247	0x3cfd337e	0.030908342
248	0xbd3faa93	-0.04679353
249	0x3db81081	0.08987523
250	0x3d881379	0.06644339
251	0x3e0b6075	0.13611014
252	0x3c7f66a9	0.015588441
253	0x3c388a13	0.011263388
254	0x3e0759da	0.1321787
255	0xbd2da9cb	-0.042398255

network.6.bias f4 [32]
0	0x3f364dce	0.7121247
1	0x3e6c1480	0.23054695
2	0xbd10f014	-0.035385206
3	0x3eaf38e5	0.34223095
4	0xbe8272eb	-0.254783
5	0x3e2b83b3	0.16749458
6	0x3e0055f2	0.12532786
7	0xbedae46e	-0.42752403
8	0x3f918f92	1.1371939
9	0x3f4c710e	0.7986001
10	0xbe835a59	-0.25654867
11	0x3f86ce79	1.053176
12	0x3e858eb0	0.26085424
13	0x3fa3548f	1.276018
14	0x3d98f7e0	0.074691534
15	0x3f389377	0.72100013
16	0x3beec631	0.00728681
17	0x3e8e8023	0.27832136
18	0x3f5d2ee4	0.86399674
19	0x3f68fc73	0.91010207
20	0x3eff8fd7	0.4991443
21	0xbe59b377	-0.21259867
22	0xbe5f791e	-0.21823546
23	0x3f635563	0.88802165
24	0xbe34ac42	-0.17643836
25	0x3e8a6953	0.2703348
26	0x3e33832e	0.1753051
27	0x3fa01122	1.2505229
28	0x3cc03e1b	0.023467114
29	0xbdf5e99e	-0.120074496
30	0xbe59326a	-0.21210638
31	0x3eae8814	0.34088194

network.8.weight f4 [1, 32]
0	0x3d720bc2	0.059093244
1	0x3db71830	0.0894016
2	0x3dae531c	0.085119456
3	0x3d92b29a	0.07162972
4	0xbd477849	-0.048698697
5	0x3b76b0f5	0.0037642096
6	0x3c85f33e	0.016351338
7	0x3cbb8b3a	0.022893537
8	0x3d0ba02a	0.03408829
9	0x3cf313cc	0.029672526
10	0xbe02548b	-0.12727563
11	0x3d806d32	0.06270827
12	0x3d1fb3b9	0.038989756
13	0x3d6f983c	0.05849479
14	0xbb8aba0b	-0.004233604
15	0x3e0dae12	0.13835934
16	0x3c30dffa	0.010795588
17	0x3e05c715	0.13064225
18	0x3ce61679	0.028086888
19	0x3d1113cc	0.03541927
20	0x3d880e7a	0.06643386
21	0xbdb8b9c3	-0.09019806
22	0xbdf4eb9d	-0.11959002
23	0x3ce22967	0.027607633
24	0x3cd75568	0.026285842
25	0x3ca1fb0a	0.019773025
26	0x3df190ff	0.11795234
27	0x3d3a02f2	0.045412965
28	0x3d93a3a5	0.07208947
29	0xbe0ef236	-0.13959584
30	0xbc13a1e2	-0.009010764
31	0x3c8765d1	0.016528042
