1_KORD_Self_Regression/best_model.pth (torch, 182455 bytes, 7 tensors)

network.0.weight f4 [128, 267]
00000000: 063f 83bd 5141 a6bb 1855 ba3c 0e52 253d
00000010: b13e 7dbd b88a 99bd 4f08 8abc 8501 95bd
00000020: 831b d83b f8f3 273c 14e4 de3c a860 84bc
00000030: 96fb 1c3d bf19 07bd 29c1 2ebc c5b1 b73c
00000040: 86fe 303d 81d9 323d 56ed 89bd 6d03 693c
00000050: ee0c 11bc 03f8 19bd 4925 f23c 8d6b 163d
00000060: 1610 853c 07f1 933d 6e98 48bb 0f73 4b3d
00000070: 6b64 a03d f518 12bb 9d6b 5c3d fbd7 633d
00000080: 5af2 4bbc 12ef 443d 5de4 fb3c e38f 98bc
00000090: 34ad 03bd 6d02 703d 0e84 7e3d 9953 973d
000000a0: ec49 cabb 9b77 b0bc b38b 0dbd 1120 203d
000000b0: 02e6 603d 9457 13bd b330 8b3d d150 a33d
000000c0: 0156 993d 6a7e a83d fcec 433d 780a c43c
000000d0: 1f4a 24bc a7f6 bc3d 7473 ec3c 02c1 9b3d
000000e0: 0d74 633d b8ac 8f3d 210d 893b bd3b cd3c
000000f0: bc70 073c f113 953b 1cc3 663c 7df1 b83d
00000100: 6755 9b3d e44a 1f3d 2fd5 873d 3d15 613d
00000110: 29f3 3c3d f8c2 8d3d ad27 b83d de2c 5eba
00000120: 793d 08bd 40b4 283c 78f5 9abd 3565 1bbc
00000130: 5402 cf3b dd59 a73c 762a 95bd 9653 81bc
00000140: 654b b93b 3c4a 7abc 95a5 debc 2d41 9bbd
00000150: 0370 923c 173a 66bd 8e0d 01bd 3b2c 49bd
00000160: e01f 4dbd 337d 3e3d 013a 053d 51e5 1b3c
00000170: fcf0 7fbd 059d 3f3d 979a 59bc 2086 0438
00000180: bf25 4abc 55dd 19bb 1ad5 83bd 6244 cfbc
00000190: 4a6a e4bc a782 dabb 277a 16bd e4f5 8abd
000001a0: 7832 2d3d a55d 6f3c 3eea 863b e203 6abd
000001b0: 3129 0f3d 5d37 36bd 819d c73c c231 053d
000001c0: 893f 70bc c3dd c4ba 2692 54bd 4d0f 58bb
000001d0: 3a3d 14ba 930b 8cbc 1b6f 88bc e64f 17bd
000001e0: 1fcf be3b e3c0 74bd 51e7 dbbc e214 3fbd
000001f0: 3810 a73c c0b1 afbc 76f9 8ebd 4fef 37bd
00000200: b29d e13c 6d96 473d fb7d 23bd 3dd9 a23c
00000210: 5510 133d 02c0 49bd 911c d0bb 4db4 c7bc
00000220: 22ad 1d3d 7c01 cc3b 51ad 563a babe 9dbd
00000230: 6229 5cbd 321d 09bd c025 10bd fc1a dd3c
00000240: 8173 b43d 22f7 d43d 0369 5b3d ad11 7d3d
00000250: 97c1 d63c c703 f13d 954b d83c 1116 2a3d
00000260: bd5d eb3c 0b36 0b3c 0126 b63d 050e 433d
00000270: 8ccd bc3d 8e0f 403d 0795 b73d 1762 0e3d
00000280: 0774 8e3d ce52 0a3d 2cf1 bc3d 11ed 2d3d
00000290: 2429 1c3d bbdc 7c3d 0f9b 1b3d 8be1 e93d
000002a0: 1407 09bd 5978 83bd 00a4 56bd b61b 913c
000002b0: 7673 5ebd 72a1 3ebd 5c21 2cbb 21b0 ccbb
000002c0: d81d 5fbd ddbd f7ba 12ba 85bd 3cb1 393d
000002d0: b828 85bd 873c f3bc 6512 50bd 01b8 033c
000002e0: ae77 6b3c 03ac 8bbc 683b 2fbd a0c0 8dbd
000002f0: b7a0 1e3d 35bf 143d 10be 0e3c d048 3d3c
00000300: caa7 f0bc bbb8 76bd 6c0b 00bc 7011 c2bc
00000310: c31e b43c 3c39 013d e670 0fbc 92bb acbc
00000320: 5780 4cbc ef79 74bc 15c3 693c 340a 7abd
00000330: 477e aebc 297d 7abd f115 fabc 78a8 a6bc
00000340: 465f 0cbd 7c8d 5cbd 7704 e93b 18ed 08bd
00000350: c10f 83bd e321 353d f58b 523d 8f28 313d
00000360: fdbc 61bd 2d54 c9bb 35d9 a3ba 1a55 7d3c
00000370: 4728 dbba ac69 fa3a d7c0 80bb 298f 813c
00000380: 37a3 90bc 5096 f43c bce4 0bbc 5ff1 e5bc
00000390: 054f 8dbc d03e 8ebd 2a45 083d fd27 4ebc
000003a0: d1b8 8dbd c567 49bc dcb6 83bd 2427 083d
000003b0: fa58 2cbd 95f7 473d 404c d83c 7bc3 593d
000003c0: da7f c23b 6345 883c 5112 80bd 2f7a f63c
000003d0: 45fa 0a3d 7489 60bc 5237 3dbc f39c a2bc
000003e0: 38fa 91bb 563b 553c 6d2c 68bd 55d6 8fb8
000003f0: 33e8 f1ba e53c d83c 4013 cd3b 3af3 53bc
-0.06408505 -0.0050737043 0.022745654 0.040361457 -0.061827365 -0.074971616 -0.016849665 -0.072756805
0.0065950765 0.010251038 0.027208365 -0.01615937 0.03832587 -0.032983538 -0.01066617 0.022423634
0.043211482 0.04366446 -0.06734721 0.014222008 -0.00885318 -0.037590038 0.029558795 0.036723662
0.016243022 0.07223707 -0.0030608433 0.049670275 0.07831653 -0.0022292708 0.053813566 0.055625897
-0.012447918 0.048079558 0.03074854 -0.018623298 -0.0321476 0.058596063 0.062137656 0.07388992
-0.006173363 -0.021541407 -0.034557056 0.03909308 0.054906853 -0.035972193 0.06796398 0.07974399
0.07487107 0.082272366 0.047833428 0.023930773 -0.0100274375 0.09226733 0.028863646 0.07605173
0.055530597 0.07015365 0.0041824733 0.0250529 0.008266624 0.0045494963 0.014084604 0.09030435
0.075846486 0.03888978 0.066324584 0.054951895 0.046130333 0.06921953 0.089919426 -0.00084753137
-0.03326175 0.010296881 -0.07566351 -0.009484579 0.006317416 0.020428592 -0.072834894 -0.015786927
0.0056547397 -0.015276488 -0.027178565 -0.07580791 0.017875677 -0.056207743 -0.031507067 -0.049114447
-0.050079226 0.046506118 0.03252602 0.0095151225 -0.06248568 0.046780605 -0.013281486 3.1596166e-05
-0.012338101 -0.0023477871 -0.0643713 -0.025301162 -0.027882714 -0.006668407 -0.036737587 -0.06785181
0.04228446 0.014609729 0.0041172793 -0.05713261 0.034951393 -0.044486392 0.024367096 0.032518156
-0.014663585 -0.0015019703 -0.05189719 -0.0032968104 -0.00056548754 -0.017095363 -0.016654542 -0.03694143
0.0058230306 -0.059754264 -0.026843699 -0.046650775 0.020393476 -0.021447062 -0.06981175 -0.044905957
0.027541015 0.04872744 -0.039915066 0.019878978 0.035904247 -0.04925538 -0.0063510616 -0.024377966
0.03849519 0.006225763 0.00081892783 -0.07702394 -0.053750403 -0.03347511 -0.03519225 0.026990406
0.08811093 0.10398699 0.053566944 0.061784435 0.026215358 0.117682986 0.026403228 0.04152495
0.028731221 0.008496772 0.088939674 0.047620792 0.092188925 0.046889834 0.089639716 0.034761515
0.06955724 0.033770375 0.092256874 0.042462412 0.038125172 0.061733942 0.037989672 0.11419972
-0.033454016 -0.06419439 -0.052402496 0.017713409 -0.05430933 -0.046540685 -0.0026265 -0.006246582
-0.05447182 -0.0018901188 -0.06529631 0.04533504 -0.06501907 -0.029691948 -0.050798792 0.008039475
0.014371796 -0.017049795 -0.042781264 -0.06921506 0.03872749 0.03631516 0.008712307 0.011553004
-0.029376883 -0.060234766 -0.007815223 -0.023689955 0.021987325 0.031548724 -0.008754944 -0.021085534
-0.0124817705 -0.014921649 0.014267703 -0.061044887 -0.021300448 -0.06115452 -0.03052804 -0.020344004
-0.034270547 -0.053845868 0.007111128 -0.033429235 -0.06399489 0.04422177 0.051403005 0.04325157
-0.055111874 -0.0061440677 -0.0012500646 0.015462184 -0.0016720378 0.0019104979 -0.0039292383 0.015815334
-0.017655952 0.02985683 -0.008538421 -0.028069196 -0.017249594 -0.06945574 0.033269085 -0.012582776
-0.069200166 -0.012292807 -0.06431362 0.033240452 -0.042077042 0.048820097 0.026403546 0.05316494
0.0059356513 0.016634649 -0.062534936 0.030087559 0.033930082 -0.013704646 -0.011548834 -0.01985023
-0.004454877 0.013014635 -0.056682993 -6.858694e-05 -0.0018456042 0.026396224 0.0062583983 -0.012936408

network.0.bias f4 [128]
00000000: 5b3e a5bc 4455 0dbc 9112 3bbd da87 f4bb
00000010: a5c5 003d 9a93 82bc 081b b23c d20b 98bc
00000020: ce83 233c e7a1 753c ced4 99bd 5cf4 eabc
00000030: 58a1 db3c 7925 31bd b617 563d 7911 9e3b
00000040: a2c7 99bd 7fb8 9d3c 9215 79bd 9662 bb3b
00000050: 03ed b63b fad2 d13b 53fa 21bc 50cb 943c
00000060: 1004 42bb ba24 3d3d 1787 0d3d 5daa 433d
00000070: 1ea7 f73c 0cf1 40bd 0def 213c 6e58 203d
00000080: a5ca c7bc c0cb 3cbd d6e8 613c 9f26 dc3c
00000090: b010 30bd 1274 6dbd c53d 43bd 8f66 0e3d
000000a0: 31cb 73bd 2346 aabc 1a65 523c 4cb3 74bc
000000b0: 8b3d 56bb f0b5 a7bc b4e4 ef3c e40f 143d
000000c0: b92b 12bd 1182 f93c fd27 d4bb b6c7 d5bc
000000d0: 2d49 203d faea 463a b85c 393c 443b f53c
000000e0: bc24 383d 5054 51bd b252 d1bc 4b46 a73b
000000f0: ff5e 1f3d aaea c5bc dcdc 523d 7209 c8bc
00000100: 1d5b 463c 70af c3bc ef1e 61bd ff90 ac3c
00000110: 3f3e 5c3c dfaa b73c 84f6 1f3d ad9b f3bc
00000120: af64 afbb 57cc 35bc 57c3 a53c 4db7 2f3d
00000130: e36c ce3b 21fc 6cbd 04b1 33bd 3d51 4dbd
00000140: 84e8 613d 13ce 30bd f3c1 05bd e897 09bc
00000150: 0440 c03c b47d 4ebc d0e2 a33b b1a5 fd3c
00000160: c9b8 423d e558 063d 8bb0 24bd 4dbc 1f3a
00000170: af41 ee3b 2ab9 abbc 73fb 86bc 67bb e63c
00000180: 57eb 4a3c 281b 003d a4a3 25bd f128 68bd
00000190: 6b97 b4bc 9a87 553d 12e0 81bd 622e 3fbd
000001a0: aa66 ee3c 4389 953b 2990 8dbc cc58 cbbc
000001b0: b7ed 533d 7650 3fbd c547 2a3d b534 95bc
000001c0: e89a 62bd a943 f43c 8856 2abd bbb2 663c
000001d0: 7baf f83b 76ed e0bc 5ed3 c73c f772 433d
000001e0: 6495 22bd 23b0 b53c d03e fdbb 769d 9dbc
000001f0: 1ba8 2ebd 8933 c13c daa9 9f3c 0da1 63bd
-0.020171335 -0.008626286 -0.045672003 -0.007462484 0.03143849 -0.015939523 0.021741405 -0.018560324
0.009980155 0.014992214 -0.075112924 -0.028680973 0.026810333 -0.043248627 0.052268706 0.0048238602
-0.0750878 0.019253014 -0.060811587 0.0057185395 0.005582453 0.006403324 -0.009886342 0.018163353
-0.0029604472 0.046177603 0.03455266 0.047769893 0.030231055 -0.04710488 0.009883654 0.039146833
-0.02438862 -0.04609275 0.013788423 0.026873885 -0.042984664 -0.05797202 -0.04766633 0.034765776
-0.05951995 -0.020785397 0.012841487 -0.014935326 -0.003269049 -0.020472497 0.029283859 0.036147967
-0.03568623 0.030457528 -0.0064744935 -0.026096206 0.039132286 0.0007588115 0.01131361 0.029935487
0.044956908 -0.051105797 -0.025552128 0.005104815 0.038908955 -0.024159748 0.05148016 -0.024418566
0.012106684 -0.023887366 -0.05496114 0.021065233 0.013442575 0.022420345 0.039053455 -0.029737318
-0.0053525786 -0.011096082 0.020234747 0.04289942 0.0062996014 -0.057857636 -0.043869987 -0.050126303
0.055153385 -0.043165278 -0.032655668 -0.008398034 0.023468025 -0.012603212 0.0050014034 0.030962797
0.047539506 0.03279962 -0.040207427 0.00060934277 0.0072710137 -0.020962317 -0.016477322 0.028165532
0.012385211 0.0312759 -0.040439263 -0.05667967 -0.022044858 0.052131273 -0.06341566 -0.046675093
0.029101688 0.004563482 -0.017280655 -0.024822615 0.051740374 -0.046707593 0.04157235 -0.01821361
-0.05532351 0.02981742 -0.04158643 0.014080699 0.0075892783 -0.02745698 0.02439278 0.04771706
-0.03969325 0.022178715 -0.007728435 -0.019240122 -0.042640787 0.023584144 0.019490171 -0.055573512

network.3.weight f4 [64, 128]
00000000: 0959 d6bc aa3a a6bd f6ac 43bb fe84 29bc
00000010: 6572 283c 0889 903c 1757 0c3d 7d11 b2bd
00000020: a01b 3dbd 06d8 e23c 88a5 bdbb 4998 9cbd
00000030: 724b 4ebc e38d 91bd 9cd2 50bc 3f8d 7dbd
00000040: a0c8 213d 6680 333c e4a2 463d b14a 323d
00000050: 0a97 a3bd b074 8cbc cc8e febc aee7 93bc
00000060: d3cc e1ba d96b 8e3d f3e2 293d 1855 87bc
00000070: 5b91 f6bc 080f 023d 66e3 1ebb e44b af3c
00000080: ba3d 973d cbc6 613d d60c d6bc f447 8cbc
00000090: 4b0d ce3c 4baf 8ebd a4ba 0abd 4d95 73bc
000000a0: 5cb6 173c d54e 573c ce78 2fba 6865 993b
000000b0: 9e63 9d3d a33e 9b3b 865d 84bc d96f 28be
000000c0: 6566 183c 2b98 d23c 3452 e6bc f1da a2bd
000000d0: 8ad8 243c f5b0 853c 12e3 09bd 219e 39bd
000000e0: 2f33 9bbd 7cd6 82bc d2ba 0d3d c636 193c
000000f0: 09e2 2fbc 0dcf 96bd fe48 0b3d fbda 863c
00000100: 3dfb 233d 08e0 9dbd c08d 093d 2d5b 713d
00000110: a65b 88bd 3e3f c3bd a2a5 b73c 1fb9 aa3d
00000120: 55a1 6bbd b969 75bd d331 963d be77 ea3b
00000130: 63b0 0e3d f0d9 60bd 0e96 453d 86e4 94bd
00000140: 2cd9 c23d 0a34 9d3c 66c9 7dbc e9fc 1bbd
00000150: df12 db3c 060a bb3c 5471 113d 3c1d 64bd
00000160: c6b1 643d d60e 633d cb0a 21bd bfa3 1c3c
00000170: 410d bebc 31fb 23bc 8939 2f3d f0ae 6c3d
00000180: d9c6 9cba 84c7 f93b 142d 5fbd cb28 bb3c
00000190: bd93 883c 6913 243b 97c3 2e3d 9fcb 5d3b
000001a0: 9447 e1bc 2231 76bd c531 f13a e367 4f3a
000001b0: e495 af3d fa45 273d 5aba 3b3c 23a6 463d
000001c0: 96da 6c3d 596f 8ebd 8a8d 21bd f9d6 c33c
000001d0: 4c34 83bd 5586 763d ec28 b93c abb6 a03d
000001e0: 636a 07bd 15ae b13b d94d 90bd 3aee f23c
000001f0: 8af2 9a3d a198 b4bd 1287 5abd b4c6 1e3d
00000200: 9691 06bd e262 de3c b4d8 b9bd 6386 593b
00000210: b4bf 1cbd f8b2 043d 6ecc 3e3d d5a3 9a3d
00000220: 2927 64bd 698b 57bd 7659 6f3c 25b8 9cbd
00000230: 997b d2bc cbb0 2cbb 1107 25bd 3f1a 9dbd
00000240: 1fe4 a0bd c161 6ebd a8c4 2c3d 4063 3dbc
00000250: 05ff 823d 1451 3cbd bae5 813d 9dea 873c
00000260: d539 463d d5e0 303d 9f74 3bbe bbc1 b0bc
00000270: ff2b 9abd e220 983d ec22 a63d 6e01 fdbc
00000280: 1730 123c a289 433d 6a08 6c3c 7da2 913d
00000290: c552 a7bd dd23 263d 74bc 53bb f964 dc3c
000002a0: c91a 92bc ce10 a73d 3d49 fabc a41e 01bc
000002b0: 474e c439 57a2 46bc 5f9a 1f3c efd9 ae3d
000002c0: dbea 6f3d 8f85 a7bd 01d6 023c 089a aabd
000002d0: 744e 49bc 20a1 a6bb 12a6 b8bd e028 53bd
000002e0: d6c2 773c 1a70 9ebd 68fb 1bbd e061 263d
000002f0: 1427 15bc 9b19 64bd 7333 5cbd 6c37 92bc
00000300: f2b3 6ebd 4f71 eb3c 63ff 8e3d 7055 e33c
00000310: 3c5f 843c 1f42 1a3d 4608 4bbc 1c7a e23a
00000320: 4d8f 413d 7a5d f9bc eb4d a9bd 7d4e 55bd
00000330: 9ccf 4fbc 5159 c4bb 344e 853d 5c1d 4e3d
00000340: c343 98bd fe41 c1bd 97de 033d 4205 8f3d
00000350: 219f 54bd ce88 693d ffd0 3abd f851 a03c
00000360: 19b2 61bd 24d0 5abd 2bd2 16bd bdbb 1dbd
00000370: b3ba a2bd ff20 f13c 3438 1d3d 8ff1 5bbc
00000380: 2b91 80bd f8b5 e4bb f3e3 5d3d 78dc 803b
00000390: ac1e 833b 5618 1ebd 740e 683d ac50 953d
000003a0: d6e5 b9bc 6253 733d 30ae 8fbd 69ff 78bc
000003b0: eb72 503d 1c07 263d 91d7 753b fbfb 5bbc
000003c0: ca56 8e3d 89a8 2cbd 6884 4e3d 9155 59bc
000003d0: cdcb 34bd adcf 843c 0bb6 62bd 4f57 903d
000003e0: e56c b83c 008d abba d9be 723c 5c34 09bd
000003f0: 41cc 4ebd d5c0 a23d 4898 cabc 694b 99bd
-0.026165502 -0.08116658 -0.0029857731 -0.010346649 0.01028118 0.017643467 0.034262743 -0.08694742
-0.046168923 0.027690899 -0.005787555 -0.076462336 -0.01259123 -0.07107141 -0.012745526 -0.06190228
0.03949797 0.010955906 0.04849519 0.043528263 -0.07987793 -0.017145485 -0.03107395 -0.01805481
-0.001722718 0.06954164 0.0414762 -0.016520068 -0.030098608 0.031752616 -0.0024244427 0.021398492
0.0738482 0.055121224 -0.026129168 -0.017124154 0.025152823 -0.06967028 -0.0338694 -0.014867139
0.009259786 0.013141354 -0.00066937215 0.004681278 0.07685016 0.0047376915 -0.016157877 -0.16448916
0.0093017565 0.025707325 -0.02811537 -0.07951916 0.010061393 0.016319731 -0.033663817 -0.04531682
-0.07578122 -0.015971415 0.034601994 0.009351438 -0.010735043 -0.073637106 0.034005158 0.01646184
0.04003452 -0.07708746 0.03358245 0.058924843 -0.066581056 -0.09533547 0.022417847 0.0833609
-0.057526905 -0.059915278 0.07333722 0.0071553877 0.034836184 -0.05489534 0.048238806 -0.0727015
0.095140785 0.019189853 -0.015489912 -0.03808299 0.026742397 0.022831928 0.03550847 -0.055691943
0.0558336 0.05543407 -0.039316934 0.0095605245 -0.02319968 -0.010008619 0.04277948 0.05778402
-0.0011961117 0.007622661 -0.05448635 0.0228466 0.01667201 0.0025035983 0.042666998 0.0033843291
-0.027499951 -0.06010545 0.0018401673 0.00079119037 0.08573511 0.04083822 0.011458004 0.048498284
0.057825647 -0.06954832 -0.039441623 0.023906218 -0.06406459 0.060186703 0.02260252 0.07847341
-0.033060443 0.0054223635 -0.07046098 0.02965461 0.07565792 -0.08818174 -0.05335147 0.038763717
-0.032853685 0.02714676 -0.09074536 0.0033191673 -0.03826876 0.03239724 0.046581678 0.0755078
-0.05570141 -0.052623186 0.0146087315 -0.0765231 -0.025693702 -0.0026350494 -0.040289942 -0.07671022
-0.07856011 -0.058198694 0.042179734 -0.011559308 0.06396297 -0.04597576 0.06342645 0.016591365
0.048394997 0.043183167 -0.18306206 -0.021576753 -0.07527923 0.07428147 0.081121296 -0.03088447
0.008922598 0.04773868 0.014406303 0.0711107 -0.08170084 0.040561546 -0.0032308372 0.026903616
-0.017835038 0.08157502 -0.0305525 -0.00788084 0.00037442354 -0.012123666 0.009741395 0.08537661
0.058573585 -0.08179771 0.007985593 -0.083301604 -0.012286771 -0.0050851256 -0.090160504 -0.051552653
0.015122136 -0.077362254 -0.038081557 0.040620685 -0.009103555 -0.05568848 -0.053760003 -0.017848693
-0.058277078 0.028740553 0.06982305 0.0277507 0.016158693 0.037660714 -0.012392109 0.0017278823
0.047255803 -0.03044008 -0.08266815 -0.052076805 -0.012683775 -0.0059920927 0.06509057 0.050320968
-0.074347995 -0.09436415 0.0321947 0.06983425 -0.05190957 0.057015233 -0.04560947 0.019570336
-0.055101488 -0.053421155 -0.036821526 -0.03850912 -0.07945766 0.02943468 0.038383678 -0.013424291
-0.062776886 -0.0069797 0.054172467 0.003932532 0.004001459 -0.038597427 0.05665441 0.072907776
-0.022692602 0.059405692 -0.070156455 -0.015197613 0.050890844 0.040534124 0.003751252 -0.013426776
0.069501474 -0.042152915 0.05041924 -0.0132650295 -0.044139672 0.016212309 -0.05534939 0.07047903
0.022512862 -0.0013088286 0.014816009 -0.0334972 -0.05048776 0.07946936 -0.024730816 -0.074850865

network.3.bias f4 [64]
00000000: 2f16 bf3d 8d99 97bd e3aa 1b3c a94d 463d
00000010: a87a b0bc 6a70 4c3d 50e4 c5bd 62eb a63d
00000020: 1b66 52bd bc8f 293d 6575 a3bd 5490 1ebd
00000030: 363c 7ebd aadf f33c 9b3d 9abb d672 d6bd
00000040: f3a2 413c 0d49 fe3d 98bf 79bd 3809 d53c
00000050: 6543 3dbd bfdd d8bd 31cc 65bd c1ab a53c
00000060: 44f2 043d 9d10 05bd b9a7 31bd 141b a6bd
00000070: 9a7c 3e3c 00ff 0ebe 9f45 943d b2de 1cbd
00000080: e5c9 853d d276 d2bd 2c04 563d 6776 76bb
00000090: 8ce1 a5bc 20b4 0f3d 5915 683e b56f 813d
000000a0: 6ebb 723d b7fb 663a 6da9 d23c ad17 423c
000000b0: b02e f4bc 14e8 90bc 077a 38bd 542a 8c3d
000000c0: 5ef2 c6bd 472b e93c 723f c1bd c38a d2bd
000000d0: 6c73 b0bc 0202 973c 9c3f e43c 7a85 ebbc
000000e0: a545 d4bc e54a 913c d983 9dbd ca0d b3bc
000000f0: 4514 a93b 75ad ed3c 46cf efbc 1787 4e3d
0.09330403 -0.07402334 0.009501192 0.048413906 -0.021542862 0.049911894 -0.09662688 0.081503645
-0.051366907 0.04139684 -0.079813756 -0.03871186 -0.06206914 0.029769737 -0.004707051 -0.10471122
0.011818635 0.12416277 -0.060973734 0.026005372 -0.04620685 -0.1058917 -0.056102935 0.0202235
0.032457605 -0.032486547 -0.043372843 -0.081106335 0.011626387 -0.13964462 0.07239842 -0.038298316
0.06532649 -0.102765694 0.052250072 -0.0037607194 -0.02024915 0.03508389 0.22664393 0.063201346
0.059260778 0.0008811312 0.025715554 0.011846465 -0.029807419 -0.017688788 -0.04503825 0.06844011
-0.097141966 0.028463019 -0.09435929 -0.10280373 -0.021539412 0.018433575 0.027862363 -0.02875017
-0.025912115 0.017735908 -0.076911636 -0.021857161 0.005159887 0.029013375 -0.02927364 0.0504218

network.6.weight f4 [32, 64]
00000000: de2e 8c3d a2b2 083d a071 08bd a0a6 323d
00000010: 124f 59bd 50f4 f7bd 2e4f d9bd 280d b0bd
00000020: a344 963d 9135 cbbd 463d 393c 3d4c 473d
00000030: 390a 4ebd 0464 dfbd 3fe3 d1bd 2987 9fbb
00000040: b225 883d b64c e8bd 36bf 283d 476b b5bc
00000050: 6378 dcbd e960 063d b708 c93d b099 9a3a
00000060: adb4 3dbd 859c 7d3c 3171 8c3d 39c5 8c3c
00000070: 5558 93bd aabf 38bd 0f7d 033d 5195 c23c
00000080: 136a 693c d06b 96bd c2a3 62bd 0ecc 4b3d
00000090: f638 f5bd 7704 b23d 1337 8ebd e068 8fbd
000000a0: 7154 a63d f0f9 f03c 6a11 8dbd 4032 233d
000000b0: 5364 dcbd a1e4 643d 9432 42bd f204 57bd
000000c0: c5bf 2f3d 721b d4bc 56d4 a4bd 2da8 59bd
000000d0: 4530 c8bd 7072 d73d e8b2 33bd 79da dd3b
000000e0: 20e2 27bd 5eef 74bd 6687 6d3d 97e4 633d
000000f0: d0c1 d13d b805 873d 1cb7 aabd 0aa9 00be
00000100: 7aef c1bd 89c2 a23c 4a40 b53c 95cf 6dbd
00000110: a5b8 e7bd ffc0 453d f800 20bd 6122 d3bd
00000120: 9ad4 373c 365d ebbd 4aec 5a3d ba60 7cbd
00000130: ab79 99bc d65e 853d ffe7 3c3d c1b8 bcbd
00000140: 850c 11be c80e 72bd 7deb 81bd aeec a83d
00000150: c2ec 703d 8256 e3bc b7d5 b7bc 7817 ad3d
00000160: d997 8dbc c80a 6b3d 2ca4 6c3d 9c50 6ebd
00000170: 5b5a b6bb 1964 243e 70c9 d23d cac8 cbbc
00000180: 2f5b 84bd 5aa8 f8bd edd5 1fbd 404c 453d
00000190: 3553 e239 4889 7dbc a7cc d8bc 2cd0 d2bc
000001a0: 654e 3e3d 4ac0 32bc b5e4 a83c 037d d5bd
000001b0: 7506 78bd 2f89 af3c 3ec3 c3bd a3ef 033d
000001c0: 4907 e53d 15ad 2c3d 022c 9e3d 60d2 953d
000001d0: 71a2 8bbd 3877 d3bc e785 973d 3392 dbba
000001e0: 26e8 713d cd37 99bd a874 3e3d a69c d33d
000001f0: b878 a4bd 3065 7a3d 859c d6bd e427 b7bd
00000200: 92c4 cbbd 577f 87bd eb64 a33c d895 df3d
00000210: 42fe 3ebd 1a40 c1bd 933d d23d 7af1 d33c
00000220: 3185 cbbb 50a4 533c 669c c03d 5c67 e4bd
00000230: 7d25 58bd 16e4 fa3d 5c57 50bd b5c4 abbd
00000240: bb76 fc3d 9233 d1bd 1879 1b3d 7a06 3c3d
00000250: b6f2 a2bc b0fd ca3d 81e1 dd3c 52c1 39bd
00000260: 5fe7 85bd 7b76 d5ba 444b 8ebd 0c7a 1abd
00000270: 8269 01be 6aab e5bc 894d 1cbd b286 873d
00000280: d4df c8bd cb16 a53d fda6 ebbb 9c5f 41bd
00000290: 62d3 b43d 1581 833c d3e8 f83d 04ec 15bd
000002a0: 08f3 9d3d 4c2b 6abd 10cf 42bd 28e3 1f3d
000002b0: ac45 c43d c87e c43d 9fbc 9abd d814 0f3b
000002c0: 3c76 97bd b1e6 bc3d 2e99 093d e7ac 49bd
000002d0: ca96 7d3d 7373 42bd 368d b6bd 23ad c53d
000002e0: bedf 583d 4c65 10bd d4b3 f3bd 2615 6ebc
000002f0: 5974 74bd b94b 413d 5dab bdbd b985 34bd
00000300: 2ea8 b7bd 929a dfbc 6853 d93c 9ff1 b8bd
00000310: c929 edbd 87aa c1bd 8428 8c3d 6384 893d
00000320: c16d 453d dc65 5a3d 1a08 383d 751f 6c3d
00000330: ab69 f1bd 62ed cabc f3cb 0e3d 4942 b53c
00000340: 6219 47bd 0a90 7b3d 7f63 933d 2b00 fbbd
00000350: 3ee7 c4bb 3169 913d 8985 863d 01fd 0dbd
00000360: d1ee 9cbd 7de0 723b 97f7 7a3c 1455 0bbd
00000370: db0f 463d dcb5 623d d27e f7bb 715c 9ebd
00000380: 498f aebd 2878 50bd 6d43 123d f34a 1ebc
00000390: 0b83 dfbd 6427 d73d 8f49 b8bc 8336 eb3d
000003a0: 2a93 3fbb 694d debd 53ba 0fbd 595f 03be
000003b0: 58c8 cc3d ac3c 9fbd 041b 6c3c 3616 e43d
000003c0: ca3a 173d 93a0 fb3c ac2b e2bd 528e 76bd
000003d0: fb31 943d 21b6 e73d fae1 50bd 68c5 613a
000003e0: 35b1 b13d ce71 783d 9f3f 8d3c a103 92bd
000003f0: f8f7 76bd b5fc a7bd 6dbe 263d 520f a5bd
0.06844877 0.033373483 -0.033311486 0.043615937 -0.053053923 -0.12107146 -0.106108055 -0.08596259
0.0733731 -0.09922326 0.011306113 0.04865669 -0.050302718 -0.10907748 -0.10248422 -0.0048684073
0.06647815 -0.113427565 0.041197978 -0.02214588 -0.107651494 0.032807264 0.09816115 0.001179507
-0.046314884 0.015479212 0.06857527 0.017183887 -0.071945824 -0.04510466 0.032101687 0.02375284
0.0142464815 -0.07344782 -0.055331953 0.04975515 -0.11973755 0.08692258 -0.06944098 -0.07002425
0.08121575 0.029416054 -0.06888087 0.039842844 -0.10761323 0.0558821 -0.047411516 -0.05249495
0.042907495 -0.025891993 -0.08048312 -0.0531389 -0.09774832 0.10519874 -0.04387179 0.0067704287
-0.040987134 -0.05979859 0.057990454 0.055637922 0.10242045 0.06592888 -0.083357066 -0.12564483
-0.09469505 0.019868152 0.022125382 -0.058059294 -0.11314515 0.04827976 -0.039063424 -0.10309292
0.011220122 -0.11492388 0.053448 -0.061615683 -0.018734774 0.06512229 0.046119686 -0.092149265
-0.14164932 -0.059096128 -0.06343744 0.08248268 0.05881954 -0.027751211 -0.022440774 0.08451742
-0.01728432 0.05738333 0.057773754 -0.058182344 -0.0055649704 0.16053809 0.102923274 -0.024876017
-0.064627044 -0.121414855 -0.039022375 0.04816842 0.00043168073 -0.015474625 -0.026464773 -0.02573403
0.04646148 -0.010910103 0.020616869 -0.10424235 -0.060553033 0.021427719 -0.09558724 0.032210957
0.1118303 0.04215725 0.077232376 0.073155165 -0.068180926 -0.025813684 0.07398587 -0.0016751945
0.059059285 -0.07481346 0.04649797 0.10332613 -0.08030838 0.061131656 -0.104790725 -0.089431554
-0.09949602 -0.06616085 0.019945582 0.10917252 -0.046629198 -0.094360545 0.102656506 0.025871981
-0.006210946 0.012917593 0.09404831 -0.11152527 -0.052770127 0.12250535 -0.050864562 -0.08387128
0.123273335 -0.102149144 0.03795728 0.045904614 -0.019891124 0.09911668 0.027085068 -0.04535038
-0.06538271 -0.001628592 -0.069479495 -0.03771405 -0.12637904 -0.028035838 -0.03815988 0.06617488
-0.09808317 0.08060988 -0.0071915374 -0.04721032 0.088293806 0.016052762 0.12153783 -0.036602035
0.0771237 -0.057170197 -0.04756075 0.039034992 0.09583601 0.09594494 -0.07555508 0.0021832492
-0.07395598 0.092236884 0.03359335 -0.04923716 0.06191138 -0.047473382 -0.089136526 0.09652164
0.052947752 -0.035252854 -0.11899534 -0.014531409 -0.05968127 0.047191355 -0.092612006 -0.04407284
-0.089676246 -0.027295385 0.026529029 -0.090304606 -0.115802355 -0.09456354 0.06843665 0.06714704
0.048200373 0.053319797 0.0449296 0.057647187 -0.11787733 -0.024771396 0.03486247 0.022126334
-0.04860819 0.061416663 0.07196712 -0.122558914 -0.0060090115 0.07100142 0.065684386 -0.03466511
-0.07662738 0.0037060075 0.015317819 -0.034016684 0.048354965 0.055349216 -0.00755296 -0.077324755
-0.08523423 -0.05089584 0.035708833 -0.009661424 -0.10913666 0.1050556 -0.022496013 0.11485007
-0.0029232004 -0.108546086 -0.035089802 -0.12829341 0.0999915 -0.07775244 0.014410738 0.11137049
0.0369213 0.030716216 -0.11043486 -0.06019432 0.072360955 0.11314035 -0.050996758 0.00086124847
0.08676378 0.060655408 0.017242251 -0.071295984 -0.060295075 -0.08202497 0.040708948 -0.08059563

network.6.bias f4 [32]
00000000: 164b a83c bba9 04bc 6f41 a8bc ab65 853d
00000010: 8c95 563d 188c 01be 4377 053e e62a 50bd
00000020: b42a b13d 8162 dabc f3c9 903d 43e2 74bd
00000030: c684 ad3d bf8f 1a3c 9735 73bc 7a4f 333e
00000040: eff0 8c3b ca7e 1c3e e0f5 36bc c6bb 563d
00000050: 0c07 50bc 3095 10bd 850c c93c e17e 393d
00000060: 058e 103d b5aa 373c 184f a63d 233f b93c
00000070: 611f 25be d909 033e 753b f63d 98c2 4e3c
0.020543616 -0.0080971075 -0.020539014 0.06513532 0.052388713 -0.12651098 0.13033776 -0.05082216
0.08650723 -0.026658298 0.07069769 -0.059786092 0.0847259 0.009433686 -0.01484432 0.17510787
0.0043011825 0.15282741 -0.01116702 0.05242517 -0.012696993 -0.035298526 0.024542103 0.045287017
0.03529169 0.011210133 0.08120555 0.022613114 -0.16125251 0.12796725 0.12023059 0.012619637

network.8.weight f4 [1, 32]
00000000: 1297 efbd c8a9 2cbc 69aa ee3c 06e8 13be
00000010: 29a3 813d 1ffe 1e3e 343c 0c3d 36c7 06b9
00000020: e0a2 af3d 6ef0 40bd c412 1d3d f404 88bc
00000030: 86ed 0bbe 42c5 a43c c6d8 463c 233e e23c
00000040: aaff 0bbe eec9 4d3d 9367 0cbe 22a5 1e3d
00000050: 3a6a a33d d3ca f1bc 90ac 203e 01e4 a03c
00000060: 2377 bebc 20a6 b7bd d352 d13d 972d d23c
00000070: 0c39 fabd 75c5 3c3c 04c7 013d 7925 14be
-0.11698736 -0.010538526 0.029133992 -0.14443979 0.063299485 0.15526627 0.0342371 -0.00012853448
0.08575988 -0.04710429 0.038347974 -0.016603924 -0.13664827 0.020113591 0.012136644 0.02761752
-0.13671747 0.050241403 -0.13711385 0.0387317 0.079792455 -0.02951566 0.15690827 0.01963997
-0.023250168 -0.08967233 0.102208756 0.025656505 -0.12217912 0.011521687 0.031683937 -0.1446742
